ST Edge AI Core v4.0.0-20500 359356bb0
Created date          : 2026-05-13 19:14:09
Parameters            : generate --model models/student_C1J/deploy/C1j_ptq_streaming_sm_int8.tflite --target stm32 --name student_C1j_ptq_int8 --workspace models/student_C1J/deploy/stedgeai_generate_int8/workspace --output models/student_C1J/deploy/stedgeai_generate_int8 --verbosity 2

Exec/report summary (generate)
-----------------------------------------------------------------------------------------------------------------------------------
model file         :   /leonardo_work/IscrB_WearUsFM/jzhang03/MLonMCU/models/student_C1J/deploy/C1j_ptq_streaming_sm_int8.tflite   
type               :   tflite                                                                                                      
c_name             :   student_c1j_ptq_int8                                                                                        
compression        :   lossless                                                                                                    
options            :   allocate-inputs, allocate-outputs, use-lite-runtime, use-st-ai                                              
optimization       :   balanced                                                                                                    
target/series      :   stm32                                                                                                       
workspace dir      :   /leonardo_work/IscrB_WearUsFM/jzhang03/MLonMCU/models/student_C1J/deploy/stedgeai_generate_int8/workspace   
output dir         :   /leonardo_work/IscrB_WearUsFM/jzhang03/MLonMCU/models/student_C1J/deploy/stedgeai_generate_int8             
model_fmt          :   ss/sa per channel                                                                                           
model_name         :   C1j_ptq_streaming_sm_int8                                                                                   
model_hash         :   0x6a9962b9e2de4212a31af378766543f7                                                                          
params #           :   712,707 items (723.25 KiB)                                                                                  
-----------------------------------------------------------------------------------------------------------------------------------
input 1/11         :   'serving_default_frame_in0', int8(1x64x64x1), 4.00 KBytes, QLinear(0.007843138,-1,int8), activations        
input 2/11         :   'serving_default_cache_b2_in0', int8(1x16x16x2), 512 Bytes, QLinear(0.042207379,4,int8), activations        
input 3/11         :   'serving_default_cache_b4_in0', int8(1x8x8x2), 128 Bytes, QLinear(0.045097616,-2,int8), activations         
input 4/11         :   'serving_default_cache_b5_in0', int8(1x8x8x2), 128 Bytes, QLinear(0.069232792,17,int8), activations         
input 5/11         :   'serving_default_cache_b7_in0', int8(1x4x4x4), 64 Bytes, QLinear(0.050534714,-3,int8), activations          
input 6/11         :   'serving_default_cache_b8_in0', int8(1x4x4x4), 64 Bytes, QLinear(0.062108740,-13,int8), activations         
input 7/11         :   'serving_default_cache_b9_in0', int8(1x4x4x4), 64 Bytes, QLinear(0.073829301,-6,int8), activations          
input 8/11         :   'serving_default_cache_b11_in0', int8(1x4x4x6), 96 Bytes, QLinear(0.040488567,-6,int8), activations         
input 9/11         :   'serving_default_cache_b12_in0', int8(1x4x4x6), 96 Bytes, QLinear(0.050032146,-3,int8), activations         
input 10/11        :   'serving_default_cache_b14_in0', int8(1x2x2x10), 40 Bytes, QLinear(0.031313866,10,int8), activations        
input 11/11        :   'serving_default_cache_b15_in0', int8(1x2x2x10), 40 Bytes, QLinear(0.038860612,4,int8), activations         
inputs (total)     :   5.20 KBytes                                                                                                 
output 1/11        :   'slice_74', int8(1x2x2x10), 40 Bytes, QLinear(0.031313866,10,int8), activations                             
output 2/11        :   'slice_33', int8(1x4x4x4), 64 Bytes, QLinear(0.050534714,-3,int8), activations                              
output 3/11        :   'slice_6', int8(1x16x16x2), 512 Bytes, QLinear(0.042207379,4,int8), activations                             
output 4/11        :   'slice_57', int8(1x4x4x6), 96 Bytes, QLinear(0.040488567,-6,int8), activations                              
output 5/11        :   'slice_40', int8(1x4x4x4), 64 Bytes, QLinear(0.062108740,-13,int8), activations                             
output 6/11        :   'slice_23', int8(1x8x8x2), 128 Bytes, QLinear(0.069232792,17,int8), activations                             
output 7/11        :   'gemm_93', int8(1x27), 27 Bytes, QLinear(0.187850028,66,int8), activations                                  
output 8/11        :   'slice_16', int8(1x8x8x2), 128 Bytes, QLinear(0.045097616,-2,int8), activations                             
output 9/11        :   'slice_64', int8(1x4x4x6), 96 Bytes, QLinear(0.050032146,-3,int8), activations                              
output 10/11       :   'slice_81', int8(1x2x2x10), 40 Bytes, QLinear(0.038860612,4,int8), activations                              
output 11/11       :   'slice_47', int8(1x4x4x4), 64 Bytes, QLinear(0.073829301,-6,int8), activations                              
outputs (total)    :   1.23 KBytes                                                                                                 
macc               :   7,588,563                                                                                                   
weights (ro)       :   740,604 B (723.25 KiB) (1 segment) / -2,110,224(-74.0%) vs float model                                      
activations (rw)   :   69,776 B (68.14 KiB) (1 segment) *                                                                          
ram (total)        :   69,776 B (68.14 KiB) = 69,776 + 0 + 0                                                                       
-----------------------------------------------------------------------------------------------------------------------------------
(*) 'input'/'output' buffers are allocated in the activations buffer

Model name - C1j_ptq_streaming_sm_int8
------ ------------------------------------------------ ---------------------- ----------------- --------- -------------------------------- --- --------------- ------------------- ---------------------- 
m_id   layer (type,original)                            oshape                 param/size             macc                     connected to   | c_size          c_macc              c_type                 
------ ------------------------------------------------ ---------------------- ----------------- --------- -------------------------------- --- --------------- ------------------- ---------------------- 
0      serving_default_frame_in0 (Input, )              [b:1,h:64,w:64,c:1]                                                                   | +208(+100.0%)   +147,472(+100.0%)   Conv2D_[0]             
       conv2d_0 (Conv2D, CONV_2D)                       [b:1,h:32,w:32,c:16]   160/208             147,472        serving_default_frame_in0   | -208(-100.0%)   -147,472(-100.0%)   
       nl_0_nl (Nonlinearity, CONV_2D)                  [b:1,h:32,w:32,c:16]                        16,384                         conv2d_0   |                 -16,384(-100.0%)    
------ ------------------------------------------------ ---------------------- ----------------- --------- -------------------------------- --- --------------- ------------------- ---------------------- 
1      conv2d_1 (Conv2D, DEPTHWISE_CONV_2D)             [b:1,h:32,w:32,c:16]   160/208             147,472                          nl_0_nl   |                                     Pad_/Conv2D_[1, 2]     
       nl_1_nl (Nonlinearity, DEPTHWISE_CONV_2D)        [b:1,h:32,w:32,c:16]                        16,384                         conv2d_1   |                 -16,384(-100.0%)    
------ ------------------------------------------------ ---------------------- ----------------- --------- -------------------------------- --- --------------- ------------------- ---------------------- 
2      conv2d_2 (Conv2D, CONV_2D)                       [b:1,h:32,w:32,c:8]    136/160             131,080                          nl_1_nl   |                                     Conv2D_[3]             
------ ------------------------------------------------ ---------------------- ----------------- --------- -------------------------------- --- --------------- ------------------- ---------------------- 
3      conv2d_3 (Conv2D, CONV_2D)                       [b:1,h:32,w:32,c:48]   432/576             393,264                         conv2d_2   |                                     Conv2D_[4]             
       nl_3_nl (Nonlinearity, CONV_2D)                  [b:1,h:32,w:32,c:48]                        49,152                         conv2d_3   |                 -49,152(-100.0%)    
------ ------------------------------------------------ ---------------------- ----------------- --------- -------------------------------- --- --------------- ------------------- ---------------------- 
4      conv2d_4 (Conv2D, DEPTHWISE_CONV_2D)             [b:1,h:16,w:16,c:48]   480/624             110,640                          nl_3_nl   |                                     Pad_/Conv2D_[5, 6]     
       nl_4_nl (Nonlinearity, DEPTHWISE_CONV_2D)        [b:1,h:16,w:16,c:48]                        12,288                         conv2d_4   |                 -12,288(-100.0%)    
------ ------------------------------------------------ ---------------------- ----------------- --------- -------------------------------- --- --------------- ------------------- ---------------------- 
5      conv2d_5 (Conv2D, CONV_2D)                       [b:1,h:16,w:16,c:16]   784/832             196,624                          nl_4_nl   |                                     Conv2D_[7]             
------ ------------------------------------------------ ---------------------- ----------------- --------- -------------------------------- --- --------------- ------------------- ---------------------- 
6      slice_6 (Slice, STRIDED_SLICE)                   [b:1,h:16,w:16,c:2]                                                        conv2d_5   |                                     Slice_[o][110]         
------ ------------------------------------------------ ---------------------- ----------------- --------- -------------------------------- --- --------------- ------------------- ---------------------- 
7      slice_7 (Slice, STRIDED_SLICE)                   [b:1,h:16,w:16,c:14]                                                       conv2d_5   |                                     Slice_[8]              
------ ------------------------------------------------ ---------------------- ----------------- --------- -------------------------------- --- --------------- ------------------- ---------------------- 
8      serving_default_cache_b2_in0 (Input, )           [b:1,h:16,w:16,c:2]                                                                   |                                     Concat_[9]             
       concat_8 (Concat, CONCATENATION)                 [b:1,h:16,w:16,c:16]                                   serving_default_cache_b2_in0   |                                     
                                                                                                                                    slice_7   | 
------ ------------------------------------------------ ---------------------- ----------------- --------- -------------------------------- --- --------------- ------------------- ---------------------- 
9      conv2d_9 (Conv2D, CONV_2D)                       [b:1,h:16,w:16,c:96]   1,632/1,920         393,312                         concat_8   |                                     Conv2D_[10]            
       nl_9_nl (Nonlinearity, CONV_2D)                  [b:1,h:16,w:16,c:96]                        24,576                         conv2d_9   |                 -24,576(-100.0%)    
------ ------------------------------------------------ ---------------------- ----------------- --------- -------------------------------- --- --------------- ------------------- ---------------------- 
10     conv2d_10 (Conv2D, DEPTHWISE_CONV_2D)            [b:1,h:16,w:16,c:96]   960/1,248           221,280                          nl_9_nl   |                                     Pad_/Conv2D_[11, 12]   
       nl_10_nl (Nonlinearity, DEPTHWISE_CONV_2D)       [b:1,h:16,w:16,c:96]                        24,576                        conv2d_10   |                 -24,576(-100.0%)    
------ ------------------------------------------------ ---------------------- ----------------- --------- -------------------------------- --- --------------- ------------------- ---------------------- 
11     conv2d_11 (Conv2D, CONV_2D)                      [b:1,h:16,w:16,c:16]   1,552/1,600         393,232                         nl_10_nl   |                                     Conv2D_[13]            
------ ------------------------------------------------ ---------------------- ----------------- --------- -------------------------------- --- --------------- ------------------- ---------------------- 
12     eltwise_12 (Eltwise, ADD)                        [b:1,h:16,w:16,c:16]                         4,096                         concat_8   |                                     Eltwise/add_[14]       
                                                                                                                                  conv2d_11   | 
------ ------------------------------------------------ ---------------------- ----------------- --------- -------------------------------- --- --------------- ------------------- ---------------------- 
13     conv2d_13 (Conv2D, CONV_2D)                      [b:1,h:16,w:16,c:96]   1,632/1,920         393,312                       eltwise_12   |                                     Conv2D_[15]            
       nl_13_nl (Nonlinearity, CONV_2D)                 [b:1,h:16,w:16,c:96]                        24,576                        conv2d_13   |                 -24,576(-100.0%)    
------ ------------------------------------------------ ---------------------- ----------------- --------- -------------------------------- --- --------------- ------------------- ---------------------- 
14     conv2d_14 (Conv2D, DEPTHWISE_CONV_2D)            [b:1,h:8,w:8,c:96]     960/1,248            55,392                         nl_13_nl   |                                     Pad_/Conv2D_[16, 17]   
       nl_14_nl (Nonlinearity, DEPTHWISE_CONV_2D)       [b:1,h:8,w:8,c:96]                           6,144                        conv2d_14   |                 -6,144(-100.0%)     
------ ------------------------------------------------ ---------------------- ----------------- --------- -------------------------------- --- --------------- ------------------- ---------------------- 
15     conv2d_15 (Conv2D, CONV_2D)                      [b:1,h:8,w:8,c:16]     1,552/1,600          98,320                         nl_14_nl   |                                     Conv2D_[18]            
------ ------------------------------------------------ ---------------------- ----------------- --------- -------------------------------- --- --------------- ------------------- ---------------------- 
16     slice_16 (Slice, STRIDED_SLICE)                  [b:1,h:8,w:8,c:2]                                                         conv2d_15   |                                     Slice_[o][109]         
------ ------------------------------------------------ ---------------------- ----------------- --------- -------------------------------- --- --------------- ------------------- ---------------------- 
17     slice_17 (Slice, STRIDED_SLICE)                  [b:1,h:8,w:8,c:14]                                                        conv2d_15   |                                     Slice_[19]             
------ ------------------------------------------------ ---------------------- ----------------- --------- -------------------------------- --- --------------- ------------------- ---------------------- 
18     serving_default_cache_b4_in0 (Input, )           [b:1,h:8,w:8,c:2]                                                                     |                                     Concat_[20]            
       concat_18 (Concat, CONCATENATION)                [b:1,h:8,w:8,c:16]                                     serving_default_cache_b4_in0   |                                     
                                                                                                                                   slice_17   | 
------ ------------------------------------------------ ---------------------- ----------------- --------- -------------------------------- --- --------------- ------------------- ---------------------- 
19     conv2d_19 (Conv2D, CONV_2D)                      [b:1,h:8,w:8,c:96]     1,632/1,920          98,400                        concat_18   |                                     Conv2D_[21]            
       nl_19_nl (Nonlinearity, CONV_2D)                 [b:1,h:8,w:8,c:96]                           6,144                        conv2d_19   |                 -6,144(-100.0%)     
------ ------------------------------------------------ ---------------------- ----------------- --------- -------------------------------- --- --------------- ------------------- ---------------------- 
20     conv2d_20 (Conv2D, DEPTHWISE_CONV_2D)            [b:1,h:8,w:8,c:96]     960/1,248            55,392                         nl_19_nl   |                                     Pad_/Conv2D_[22, 23]   
       nl_20_nl (Nonlinearity, DEPTHWISE_CONV_2D)       [b:1,h:8,w:8,c:96]                           6,144                        conv2d_20   |                 -6,144(-100.0%)     
------ ------------------------------------------------ ---------------------- ----------------- --------- -------------------------------- --- --------------- ------------------- ---------------------- 
21     conv2d_21 (Conv2D, CONV_2D)                      [b:1,h:8,w:8,c:16]     1,552/1,600          98,320                         nl_20_nl   |                                     Conv2D_[24]            
------ ------------------------------------------------ ---------------------- ----------------- --------- -------------------------------- --- --------------- ------------------- ---------------------- 
22     eltwise_22 (Eltwise, ADD)                        [b:1,h:8,w:8,c:16]                           1,024                        concat_18   |                                     Eltwise/add_[25]       
                                                                                                                                  conv2d_21   | 
------ ------------------------------------------------ ---------------------- ----------------- --------- -------------------------------- --- --------------- ------------------- ---------------------- 
23     slice_23 (Slice, STRIDED_SLICE)                  [b:1,h:8,w:8,c:2]                                                        eltwise_22   |                                     Slice_[o][108]         
------ ------------------------------------------------ ---------------------- ----------------- --------- -------------------------------- --- --------------- ------------------- ---------------------- 
24     slice_24 (Slice, STRIDED_SLICE)                  [b:1,h:8,w:8,c:14]                                                       eltwise_22   |                                     Slice_[26]             
------ ------------------------------------------------ ---------------------- ----------------- --------- -------------------------------- --- --------------- ------------------- ---------------------- 
25     serving_default_cache_b5_in0 (Input, )           [b:1,h:8,w:8,c:2]                                                                     |                                     Concat_[27]            
       concat_25 (Concat, CONCATENATION)                [b:1,h:8,w:8,c:16]                                     serving_default_cache_b5_in0   |                                     
                                                                                                                                   slice_24   | 
------ ------------------------------------------------ ---------------------- ----------------- --------- -------------------------------- --- --------------- ------------------- ---------------------- 
26     conv2d_26 (Conv2D, CONV_2D)                      [b:1,h:8,w:8,c:96]     1,632/1,920          98,400                        concat_25   |                                     Conv2D_[28]            
       nl_26_nl (Nonlinearity, CONV_2D)                 [b:1,h:8,w:8,c:96]                           6,144                        conv2d_26   |                 -6,144(-100.0%)     
------ ------------------------------------------------ ---------------------- ----------------- --------- -------------------------------- --- --------------- ------------------- ---------------------- 
27     conv2d_27 (Conv2D, DEPTHWISE_CONV_2D)            [b:1,h:8,w:8,c:96]     960/1,248            55,392                         nl_26_nl   |                                     Pad_/Conv2D_[29, 30]   
       nl_27_nl (Nonlinearity, DEPTHWISE_CONV_2D)       [b:1,h:8,w:8,c:96]                           6,144                        conv2d_27   |                 -6,144(-100.0%)     
------ ------------------------------------------------ ---------------------- ----------------- --------- -------------------------------- --- --------------- ------------------- ---------------------- 
28     conv2d_28 (Conv2D, CONV_2D)                      [b:1,h:8,w:8,c:16]     1,552/1,600          98,320                         nl_27_nl   |                                     Conv2D_[31]            
------ ------------------------------------------------ ---------------------- ----------------- --------- -------------------------------- --- --------------- ------------------- ---------------------- 
29     eltwise_29 (Eltwise, ADD)                        [b:1,h:8,w:8,c:16]                           1,024                        concat_25   |                                     Eltwise/add_[32]       
                                                                                                                                  conv2d_28   | 
------ ------------------------------------------------ ---------------------- ----------------- --------- -------------------------------- --- --------------- ------------------- ---------------------- 
30     conv2d_30 (Conv2D, CONV_2D)                      [b:1,h:8,w:8,c:96]     1,632/1,920          98,400                       eltwise_29   |                                     Conv2D_[33]            
       nl_30_nl (Nonlinearity, CONV_2D)                 [b:1,h:8,w:8,c:96]                           6,144                        conv2d_30   |                 -6,144(-100.0%)     
------ ------------------------------------------------ ---------------------- ----------------- --------- -------------------------------- --- --------------- ------------------- ---------------------- 
31     conv2d_31 (Conv2D, DEPTHWISE_CONV_2D)            [b:1,h:4,w:4,c:96]     960/1,248            13,920                         nl_30_nl   |                                     Pad_/Conv2D_[34, 35]   
       nl_31_nl (Nonlinearity, DEPTHWISE_CONV_2D)       [b:1,h:4,w:4,c:96]                           1,536                        conv2d_31   |                 -1,536(-100.0%)     
------ ------------------------------------------------ ---------------------- ----------------- --------- -------------------------------- --- --------------- ------------------- ---------------------- 
32     conv2d_32 (Conv2D, CONV_2D)                      [b:1,h:4,w:4,c:32]     3,104/3,200          49,184                         nl_31_nl   |                                     Conv2D_[36]            
------ ------------------------------------------------ ---------------------- ----------------- --------- -------------------------------- --- --------------- ------------------- ---------------------- 
33     slice_33 (Slice, STRIDED_SLICE)                  [b:1,h:4,w:4,c:4]                                                         conv2d_32   |                                     Slice_[o][107]         
------ ------------------------------------------------ ---------------------- ----------------- --------- -------------------------------- --- --------------- ------------------- ---------------------- 
34     slice_34 (Slice, STRIDED_SLICE)                  [b:1,h:4,w:4,c:28]                                                        conv2d_32   |                                     Slice_[37]             
------ ------------------------------------------------ ---------------------- ----------------- --------- -------------------------------- --- --------------- ------------------- ---------------------- 
35     serving_default_cache_b7_in0 (Input, )           [b:1,h:4,w:4,c:4]                                                                     |                                     Concat_[38]            
       concat_35 (Concat, CONCATENATION)                [b:1,h:4,w:4,c:32]                                     serving_default_cache_b7_in0   |                                     
                                                                                                                                   slice_34   | 
------ ------------------------------------------------ ---------------------- ----------------- --------- -------------------------------- --- --------------- ------------------- ---------------------- 
36     conv2d_36 (Conv2D, CONV_2D)                      [b:1,h:4,w:4,c:192]    6,336/6,912          98,496                        concat_35   |                                     Conv2D_[39]            
       nl_36_nl (Nonlinearity, CONV_2D)                 [b:1,h:4,w:4,c:192]                          3,072                        conv2d_36   |                 -3,072(-100.0%)     
------ ------------------------------------------------ ---------------------- ----------------- --------- -------------------------------- --- --------------- ------------------- ---------------------- 
37     conv2d_37 (Conv2D, DEPTHWISE_CONV_2D)            [b:1,h:4,w:4,c:192]    1,920/2,496          27,840                         nl_36_nl   |                                     Pad_/Conv2D_[40, 41]   
       nl_37_nl (Nonlinearity, DEPTHWISE_CONV_2D)       [b:1,h:4,w:4,c:192]                          3,072                        conv2d_37   |                 -3,072(-100.0%)     
------ ------------------------------------------------ ---------------------- ----------------- --------- -------------------------------- --- --------------- ------------------- ---------------------- 
38     conv2d_38 (Conv2D, CONV_2D)                      [b:1,h:4,w:4,c:32]     6,176/6,272          98,336                         nl_37_nl   |                                     Conv2D_[42]            
------ ------------------------------------------------ ---------------------- ----------------- --------- -------------------------------- --- --------------- ------------------- ---------------------- 
39     eltwise_39 (Eltwise, ADD)                        [b:1,h:4,w:4,c:32]                             512                        concat_35   |                                     Eltwise/add_[43]       
                                                                                                                                  conv2d_38   | 
------ ------------------------------------------------ ---------------------- ----------------- --------- -------------------------------- --- --------------- ------------------- ---------------------- 
40     slice_40 (Slice, STRIDED_SLICE)                  [b:1,h:4,w:4,c:4]                                                        eltwise_39   |                                     Slice_[o][106]         
------ ------------------------------------------------ ---------------------- ----------------- --------- -------------------------------- --- --------------- ------------------- ---------------------- 
41     slice_41 (Slice, STRIDED_SLICE)                  [b:1,h:4,w:4,c:28]                                                       eltwise_39   |                                     Slice_[44]             
------ ------------------------------------------------ ---------------------- ----------------- --------- -------------------------------- --- --------------- ------------------- ---------------------- 
42     serving_default_cache_b8_in0 (Input, )           [b:1,h:4,w:4,c:4]                                                                     |                                     Concat_[45]            
       concat_42 (Concat, CONCATENATION)                [b:1,h:4,w:4,c:32]                                     serving_default_cache_b8_in0   |                                     
                                                                                                                                   slice_41   | 
------ ------------------------------------------------ ---------------------- ----------------- --------- -------------------------------- --- --------------- ------------------- ---------------------- 
43     conv2d_43 (Conv2D, CONV_2D)                      [b:1,h:4,w:4,c:192]    6,336/6,912          98,496                        concat_42   |                                     Conv2D_[46]            
       nl_43_nl (Nonlinearity, CONV_2D)                 [b:1,h:4,w:4,c:192]                          3,072                        conv2d_43   |                 -3,072(-100.0%)     
------ ------------------------------------------------ ---------------------- ----------------- --------- -------------------------------- --- --------------- ------------------- ---------------------- 
44     conv2d_44 (Conv2D, DEPTHWISE_CONV_2D)            [b:1,h:4,w:4,c:192]    1,920/2,496          27,840                         nl_43_nl   |                                     Pad_/Conv2D_[47, 48]   
       nl_44_nl (Nonlinearity, DEPTHWISE_CONV_2D)       [b:1,h:4,w:4,c:192]                          3,072                        conv2d_44   |                 -3,072(-100.0%)     
------ ------------------------------------------------ ---------------------- ----------------- --------- -------------------------------- --- --------------- ------------------- ---------------------- 
45     conv2d_45 (Conv2D, CONV_2D)                      [b:1,h:4,w:4,c:32]     6,176/6,272          98,336                         nl_44_nl   |                                     Conv2D_[49]            
------ ------------------------------------------------ ---------------------- ----------------- --------- -------------------------------- --- --------------- ------------------- ---------------------- 
46     eltwise_46 (Eltwise, ADD)                        [b:1,h:4,w:4,c:32]                             512                        concat_42   |                                     Eltwise/add_[50]       
                                                                                                                                  conv2d_45   | 
------ ------------------------------------------------ ---------------------- ----------------- --------- -------------------------------- --- --------------- ------------------- ---------------------- 
47     slice_47 (Slice, STRIDED_SLICE)                  [b:1,h:4,w:4,c:4]                                                        eltwise_46   |                                     Slice_[o][105]         
------ ------------------------------------------------ ---------------------- ----------------- --------- -------------------------------- --- --------------- ------------------- ---------------------- 
48     slice_48 (Slice, STRIDED_SLICE)                  [b:1,h:4,w:4,c:28]                                                       eltwise_46   |                                     Slice_[51]             
------ ------------------------------------------------ ---------------------- ----------------- --------- -------------------------------- --- --------------- ------------------- ---------------------- 
49     serving_default_cache_b9_in0 (Input, )           [b:1,h:4,w:4,c:4]                                                                     |                                     Concat_[52]            
       concat_49 (Concat, CONCATENATION)                [b:1,h:4,w:4,c:32]                                     serving_default_cache_b9_in0   |                                     
                                                                                                                                   slice_48   | 
------ ------------------------------------------------ ---------------------- ----------------- --------- -------------------------------- --- --------------- ------------------- ---------------------- 
50     conv2d_50 (Conv2D, CONV_2D)                      [b:1,h:4,w:4,c:192]    6,336/6,912          98,496                        concat_49   |                                     Conv2D_[53]            
       nl_50_nl (Nonlinearity, CONV_2D)                 [b:1,h:4,w:4,c:192]                          3,072                        conv2d_50   |                 -3,072(-100.0%)     
------ ------------------------------------------------ ---------------------- ----------------- --------- -------------------------------- --- --------------- ------------------- ---------------------- 
51     conv2d_51 (Conv2D, DEPTHWISE_CONV_2D)            [b:1,h:4,w:4,c:192]    1,920/2,496          27,840                         nl_50_nl   |                                     Pad_/Conv2D_[54, 55]   
       nl_51_nl (Nonlinearity, DEPTHWISE_CONV_2D)       [b:1,h:4,w:4,c:192]                          3,072                        conv2d_51   |                 -3,072(-100.0%)     
------ ------------------------------------------------ ---------------------- ----------------- --------- -------------------------------- --- --------------- ------------------- ---------------------- 
52     conv2d_52 (Conv2D, CONV_2D)                      [b:1,h:4,w:4,c:32]     6,176/6,272          98,336                         nl_51_nl   |                                     Conv2D_[56]            
------ ------------------------------------------------ ---------------------- ----------------- --------- -------------------------------- --- --------------- ------------------- ---------------------- 
53     eltwise_53 (Eltwise, ADD)                        [b:1,h:4,w:4,c:32]                             512                        concat_49   |                                     Eltwise/add_[57]       
                                                                                                                                  conv2d_52   | 
------ ------------------------------------------------ ---------------------- ----------------- --------- -------------------------------- --- --------------- ------------------- ---------------------- 
54     conv2d_54 (Conv2D, CONV_2D)                      [b:1,h:4,w:4,c:192]    6,336/6,912          98,496                       eltwise_53   |                                     Conv2D_[58]            
       nl_54_nl (Nonlinearity, CONV_2D)                 [b:1,h:4,w:4,c:192]                          3,072                        conv2d_54   |                 -3,072(-100.0%)     
------ ------------------------------------------------ ---------------------- ----------------- --------- -------------------------------- --- --------------- ------------------- ---------------------- 
55     conv2d_55 (Conv2D, DEPTHWISE_CONV_2D)            [b:1,h:4,w:4,c:192]    1,920/2,496          27,840                         nl_54_nl   |                                     Pad_/Conv2D_[59, 60]   
       nl_55_nl (Nonlinearity, DEPTHWISE_CONV_2D)       [b:1,h:4,w:4,c:192]                          3,072                        conv2d_55   |                 -3,072(-100.0%)     
------ ------------------------------------------------ ---------------------- ----------------- --------- -------------------------------- --- --------------- ------------------- ---------------------- 
56     conv2d_56 (Conv2D, CONV_2D)                      [b:1,h:4,w:4,c:48]     9,264/9,408         147,504                         nl_55_nl   |                                     Conv2D_[61]            
------ ------------------------------------------------ ---------------------- ----------------- --------- -------------------------------- --- --------------- ------------------- ---------------------- 
57     slice_57 (Slice, STRIDED_SLICE)                  [b:1,h:4,w:4,c:6]                                                         conv2d_56   |                                     Slice_[o][104]         
------ ------------------------------------------------ ---------------------- ----------------- --------- -------------------------------- --- --------------- ------------------- ---------------------- 
58     slice_58 (Slice, STRIDED_SLICE)                  [b:1,h:4,w:4,c:42]                                                        conv2d_56   |                                     Slice_[62]             
------ ------------------------------------------------ ---------------------- ----------------- --------- -------------------------------- --- --------------- ------------------- ---------------------- 
59     serving_default_cache_b11_in0 (Input, )          [b:1,h:4,w:4,c:6]                                                                     |                                     Concat_[63]            
       concat_59 (Concat, CONCATENATION)                [b:1,h:4,w:4,c:48]                                    serving_default_cache_b11_in0   |                                     
                                                                                                                                   slice_58   | 
------ ------------------------------------------------ ---------------------- ----------------- --------- -------------------------------- --- --------------- ------------------- ---------------------- 
60     conv2d_60 (Conv2D, CONV_2D)                      [b:1,h:4,w:4,c:288]    14,112/14,976       221,472                        concat_59   |                                     Conv2D_[64]            
       nl_60_nl (Nonlinearity, CONV_2D)                 [b:1,h:4,w:4,c:288]                          4,608                        conv2d_60   |                 -4,608(-100.0%)     
------ ------------------------------------------------ ---------------------- ----------------- --------- -------------------------------- --- --------------- ------------------- ---------------------- 
61     conv2d_61 (Conv2D, DEPTHWISE_CONV_2D)            [b:1,h:4,w:4,c:288]    2,880/3,744          41,760                         nl_60_nl   |                                     Pad_/Conv2D_[65, 66]   
       nl_61_nl (Nonlinearity, DEPTHWISE_CONV_2D)       [b:1,h:4,w:4,c:288]                          4,608                        conv2d_61   |                 -4,608(-100.0%)     
------ ------------------------------------------------ ---------------------- ----------------- --------- -------------------------------- --- --------------- ------------------- ---------------------- 
62     conv2d_62 (Conv2D, CONV_2D)                      [b:1,h:4,w:4,c:48]     13,872/14,016       221,232                         nl_61_nl   |                                     Conv2D_[67]            
------ ------------------------------------------------ ---------------------- ----------------- --------- -------------------------------- --- --------------- ------------------- ---------------------- 
63     eltwise_63 (Eltwise, ADD)                        [b:1,h:4,w:4,c:48]                             768                        concat_59   |                                     Eltwise/add_[68]       
                                                                                                                                  conv2d_62   | 
------ ------------------------------------------------ ---------------------- ----------------- --------- -------------------------------- --- --------------- ------------------- ---------------------- 
64     slice_64 (Slice, STRIDED_SLICE)                  [b:1,h:4,w:4,c:6]                                                        eltwise_63   |                                     Slice_[o][103]         
------ ------------------------------------------------ ---------------------- ----------------- --------- -------------------------------- --- --------------- ------------------- ---------------------- 
65     slice_65 (Slice, STRIDED_SLICE)                  [b:1,h:4,w:4,c:42]                                                       eltwise_63   |                                     Slice_[69]             
------ ------------------------------------------------ ---------------------- ----------------- --------- -------------------------------- --- --------------- ------------------- ---------------------- 
66     serving_default_cache_b12_in0 (Input, )          [b:1,h:4,w:4,c:6]                                                                     |                                     Concat_[70]            
       concat_66 (Concat, CONCATENATION)                [b:1,h:4,w:4,c:48]                                    serving_default_cache_b12_in0   |                                     
                                                                                                                                   slice_65   | 
------ ------------------------------------------------ ---------------------- ----------------- --------- -------------------------------- --- --------------- ------------------- ---------------------- 
67     conv2d_67 (Conv2D, CONV_2D)                      [b:1,h:4,w:4,c:288]    14,112/14,976       221,472                        concat_66   |                                     Conv2D_[71]            
       nl_67_nl (Nonlinearity, CONV_2D)                 [b:1,h:4,w:4,c:288]                          4,608                        conv2d_67   |                 -4,608(-100.0%)     
------ ------------------------------------------------ ---------------------- ----------------- --------- -------------------------------- --- --------------- ------------------- ---------------------- 
68     conv2d_68 (Conv2D, DEPTHWISE_CONV_2D)            [b:1,h:4,w:4,c:288]    2,880/3,744          41,760                         nl_67_nl   |                                     Pad_/Conv2D_[72, 73]   
       nl_68_nl (Nonlinearity, DEPTHWISE_CONV_2D)       [b:1,h:4,w:4,c:288]                          4,608                        conv2d_68   |                 -4,608(-100.0%)     
------ ------------------------------------------------ ---------------------- ----------------- --------- -------------------------------- --- --------------- ------------------- ---------------------- 
69     conv2d_69 (Conv2D, CONV_2D)                      [b:1,h:4,w:4,c:48]     13,872/14,016       221,232                         nl_68_nl   |                                     Conv2D_[74]            
------ ------------------------------------------------ ---------------------- ----------------- --------- -------------------------------- --- --------------- ------------------- ---------------------- 
70     eltwise_70 (Eltwise, ADD)                        [b:1,h:4,w:4,c:48]                             768                        concat_66   |                                     Eltwise/add_[75]       
                                                                                                                                  conv2d_69   | 
------ ------------------------------------------------ ---------------------- ----------------- --------- -------------------------------- --- --------------- ------------------- ---------------------- 
71     conv2d_71 (Conv2D, CONV_2D)                      [b:1,h:4,w:4,c:288]    14,112/14,976       221,472                       eltwise_70   |                                     Conv2D_[76]            
       nl_71_nl (Nonlinearity, CONV_2D)                 [b:1,h:4,w:4,c:288]                          4,608                        conv2d_71   |                 -4,608(-100.0%)     
------ ------------------------------------------------ ---------------------- ----------------- --------- -------------------------------- --- --------------- ------------------- ---------------------- 
72     conv2d_72 (Conv2D, DEPTHWISE_CONV_2D)            [b:1,h:2,w:2,c:288]    2,880/3,744          10,656                         nl_71_nl   |                                     Pad_/Conv2D_[77, 78]   
       nl_72_nl (Nonlinearity, DEPTHWISE_CONV_2D)       [b:1,h:2,w:2,c:288]                          1,152                        conv2d_72   |                 -1,152(-100.0%)     
------ ------------------------------------------------ ---------------------- ----------------- --------- -------------------------------- --- --------------- ------------------- ---------------------- 
73     conv2d_73 (Conv2D, CONV_2D)                      [b:1,h:2,w:2,c:80]     23,120/23,360        92,240                         nl_72_nl   |                                     Conv2D_[79]            
------ ------------------------------------------------ ---------------------- ----------------- --------- -------------------------------- --- --------------- ------------------- ---------------------- 
74     slice_74 (Slice, STRIDED_SLICE)                  [b:1,h:2,w:2,c:10]                                                        conv2d_73   |                                     Slice_[o][102]         
------ ------------------------------------------------ ---------------------- ----------------- --------- -------------------------------- --- --------------- ------------------- ---------------------- 
75     slice_75 (Slice, STRIDED_SLICE)                  [b:1,h:2,w:2,c:70]                                                        conv2d_73   |                                     Slice_[80]             
------ ------------------------------------------------ ---------------------- ----------------- --------- -------------------------------- --- --------------- ------------------- ---------------------- 
76     serving_default_cache_b14_in0 (Input, )          [b:1,h:2,w:2,c:10]                                                                    |                                     Concat_[81]            
       concat_76 (Concat, CONCATENATION)                [b:1,h:2,w:2,c:80]                                    serving_default_cache_b14_in0   |                                     
                                                                                                                                   slice_75   | 
------ ------------------------------------------------ ---------------------- ----------------- --------- -------------------------------- --- --------------- ------------------- ---------------------- 
77     conv2d_77 (Conv2D, CONV_2D)                      [b:1,h:2,w:2,c:480]    38,880/40,320       154,080                        concat_76   |                                     Conv2D_[82]            
       nl_77_nl (Nonlinearity, CONV_2D)                 [b:1,h:2,w:2,c:480]                          1,920                        conv2d_77   |                 -1,920(-100.0%)     
------ ------------------------------------------------ ---------------------- ----------------- --------- -------------------------------- --- --------------- ------------------- ---------------------- 
78     conv2d_78 (Conv2D, DEPTHWISE_CONV_2D)            [b:1,h:2,w:2,c:480]    4,800/6,240          17,760                         nl_77_nl   |                                     Pad_/Conv2D_[83, 84]   
       nl_78_nl (Nonlinearity, DEPTHWISE_CONV_2D)       [b:1,h:2,w:2,c:480]                          1,920                        conv2d_78   |                 -1,920(-100.0%)     
------ ------------------------------------------------ ---------------------- ----------------- --------- -------------------------------- --- --------------- ------------------- ---------------------- 
79     conv2d_79 (Conv2D, CONV_2D)                      [b:1,h:2,w:2,c:80]     38,480/38,720       153,680                         nl_78_nl   |                                     Conv2D_[85]            
------ ------------------------------------------------ ---------------------- ----------------- --------- -------------------------------- --- --------------- ------------------- ---------------------- 
80     eltwise_80 (Eltwise, ADD)                        [b:1,h:2,w:2,c:80]                             320                        concat_76   |                                     Eltwise/add_[86]       
                                                                                                                                  conv2d_79   | 
------ ------------------------------------------------ ---------------------- ----------------- --------- -------------------------------- --- --------------- ------------------- ---------------------- 
81     slice_81 (Slice, STRIDED_SLICE)                  [b:1,h:2,w:2,c:10]                                                       eltwise_80   |                                     Slice_[o][101]         
------ ------------------------------------------------ ---------------------- ----------------- --------- -------------------------------- --- --------------- ------------------- ---------------------- 
82     slice_82 (Slice, STRIDED_SLICE)                  [b:1,h:2,w:2,c:70]                                                       eltwise_80   |                                     Slice_[87]             
------ ------------------------------------------------ ---------------------- ----------------- --------- -------------------------------- --- --------------- ------------------- ---------------------- 
83     serving_default_cache_b15_in0 (Input, )          [b:1,h:2,w:2,c:10]                                                                    |                                     Concat_[88]            
       concat_83 (Concat, CONCATENATION)                [b:1,h:2,w:2,c:80]                                    serving_default_cache_b15_in0   |                                     
                                                                                                                                   slice_82   | 
------ ------------------------------------------------ ---------------------- ----------------- --------- -------------------------------- --- --------------- ------------------- ---------------------- 
84     conv2d_84 (Conv2D, CONV_2D)                      [b:1,h:2,w:2,c:480]    38,880/40,320       154,080                        concat_83   |                                     Conv2D_[89]            
       nl_84_nl (Nonlinearity, CONV_2D)                 [b:1,h:2,w:2,c:480]                          1,920                        conv2d_84   |                 -1,920(-100.0%)     
------ ------------------------------------------------ ---------------------- ----------------- --------- -------------------------------- --- --------------- ------------------- ---------------------- 
85     conv2d_85 (Conv2D, DEPTHWISE_CONV_2D)            [b:1,h:2,w:2,c:480]    4,800/6,240          17,760                         nl_84_nl   |                                     Pad_/Conv2D_[90, 91]   
       nl_85_nl (Nonlinearity, DEPTHWISE_CONV_2D)       [b:1,h:2,w:2,c:480]                          1,920                        conv2d_85   |                 -1,920(-100.0%)     
------ ------------------------------------------------ ---------------------- ----------------- --------- -------------------------------- --- --------------- ------------------- ---------------------- 
86     conv2d_86 (Conv2D, CONV_2D)                      [b:1,h:2,w:2,c:80]     38,480/38,720       153,680                         nl_85_nl   |                                     Conv2D_[92]            
------ ------------------------------------------------ ---------------------- ----------------- --------- -------------------------------- --- --------------- ------------------- ---------------------- 
87     eltwise_87 (Eltwise, ADD)                        [b:1,h:2,w:2,c:80]                             320                        concat_83   |                                     Eltwise/add_[93]       
                                                                                                                                  conv2d_86   | 
------ ------------------------------------------------ ---------------------- ----------------- --------- -------------------------------- --- --------------- ------------------- ---------------------- 
88     conv2d_88 (Conv2D, CONV_2D)                      [b:1,h:2,w:2,c:480]    38,880/40,320       154,080                       eltwise_87   |                                     Conv2D_[94]            
       nl_88_nl (Nonlinearity, CONV_2D)                 [b:1,h:2,w:2,c:480]                          1,920                        conv2d_88   |                 -1,920(-100.0%)     
------ ------------------------------------------------ ---------------------- ----------------- --------- -------------------------------- --- --------------- ------------------- ---------------------- 
89     conv2d_89 (Conv2D, DEPTHWISE_CONV_2D)            [b:1,h:2,w:2,c:480]    4,800/6,240          17,760                         nl_88_nl   |                                     Pad_/Conv2D_[95, 96]   
       nl_89_nl (Nonlinearity, DEPTHWISE_CONV_2D)       [b:1,h:2,w:2,c:480]                          1,920                        conv2d_89   |                 -1,920(-100.0%)     
------ ------------------------------------------------ ---------------------- ----------------- --------- -------------------------------- --- --------------- ------------------- ---------------------- 
90     conv2d_90 (Conv2D, CONV_2D)                      [b:1,h:2,w:2,c:160]    76,960/77,440       307,360                         nl_89_nl   |                                     Conv2D_[97]            
------ ------------------------------------------------ ---------------------- ----------------- --------- -------------------------------- --- --------------- ------------------- ---------------------- 
91     conv2d_91 (Conv2D, CONV_2D)                      [b:1,h:2,w:2,c:1280]   206,080/209,920     820,480                        conv2d_90   |                                     Conv2D_[98]            
       nl_91_nl (Nonlinearity, CONV_2D)                 [b:1,h:2,w:2,c:1280]                         5,120                        conv2d_91   |                 -5,120(-100.0%)     
------ ------------------------------------------------ ---------------------- ----------------- --------- -------------------------------- --- --------------- ------------------- ---------------------- 
92     pool_92 (Pool, MEAN)                             [b:1,h:1,w:1,c:1280]                         5,120                         nl_91_nl   |                                     Pool_[99]              
       reshape_92_reshape (Reshape, MEAN)               [b:1,c:1280]                                                                pool_92   |                                     
------ ------------------------------------------------ ---------------------- ----------------- --------- -------------------------------- --- --------------- ------------------- ---------------------- 
93     c1_tsmmbv2_streami..nse_MatMul (Placeholder, )   [b:27,c:1280]          34,560/34,560                                                  | +108(+0.3%)     +34,587(+100.0%)    Dense_[o][100]         
       c1_tsmmbv2_streami..VariableOp (Placeholder, )   [b:27]                 27/108                                                         | -108(-100.0%)                       
       gemm_93 (Gemm, FULLY_CONNECTED)                  [b:1,c:27]                                  34,587               reshape_92_reshape   |                 -34,587(-100.0%)    
                                                                                                             c1_tsmmbv2_streami..nse_MatMul   | 
                                                                                                             c1_tsmmbv2_streami..VariableOp   | 
------ ------------------------------------------------ ---------------------- ----------------- --------- -------------------------------- --- --------------- ------------------- ---------------------- 
model/c-model: macc=7,860,307/7,588,563 -271,744(-3.5%) weights=740,604/740,604  activations=--/69,776 io=--/0



Generated C-graph summary
------------------------------------------------------------------------------------------------------------------------
model name            : C1j_ptq_streaming_sm_int8
c-name                : student_c1j_ptq_int8
c-node #              : 111
c-array #             : 281
activations size      : 69776 (1 segment)
weights size          : 740604 (1 segment)
macc                  : 7588563
inputs                : ['serving_default_frame_in0_output', 'serving_default_cache_b2_in0_output', 'serving_default_cache_b4_in0_output', 'serving_default_cache_b5_in0_output', 'serving_default_cache_b7_in0_output', 'serving_default_cache_b8_in0_output', 'serving_default_cache_b9_in0_output', 'serving_default_cache_b11_in0_output', 'serving_default_cache_b12_in0_output', 'serving_default_cache_b14_in0_output', 'serving_default_cache_b15_in0_output']
outputs               : ['slice_74_output', 'slice_33_output', 'slice_6_output', 'slice_57_output', 'slice_40_output', 'slice_23_output', 'gemm_93_output', 'slice_16_output', 'slice_64_output', 'slice_81_output', 'slice_47_output']

C-Arrays (281)
------ -------------------------------------- --------------- ------------------------- ----------- --------- 
c_id   name (*_array)                         item/size       domain/mem-pool           c-type      comment   
------ -------------------------------------- --------------- ------------------------- ----------- --------- 
0      concat_18_output                       1024/1024       activations/**default**   s8                    
1      concat_25_output                       1024/1024       activations/**default**   s8                    
2      concat_35_output                       512/512         activations/**default**   s8                    
3      concat_42_output                       512/512         activations/**default**   s8                    
4      concat_49_output                       512/512         activations/**default**   s8                    
5      concat_59_output                       768/768         activations/**default**   s8                    
6      concat_66_output                       768/768         activations/**default**   s8                    
7      concat_76_output                       320/320         activations/**default**   s8                    
8      concat_83_output                       320/320         activations/**default**   s8                    
9      concat_8_output                        4096/4096       activations/**default**   s8                    
10     conv2d_0_bias                          16/64           weights/weights           const s32             
11     conv2d_0_output                        16384/16384     activations/**default**   s8                    
12     conv2d_0_scratch0                      548/548         activations/**default**   s8                    
13     conv2d_0_weights                       144/144         weights/weights           const s8              
14     conv2d_10_bias                         96/384          weights/weights           const s32             
15     conv2d_10_output                       24576/24576     activations/**default**   s8                    
16     conv2d_10_pad_before_output            31104/31104     activations/**default**   s8                    
17     conv2d_10_scratch0                     3553/3553       activations/**default**   s8                    
18     conv2d_10_weights                      864/864         weights/weights           const s8              
19     conv2d_11_bias                         16/64           weights/weights           const s32             
20     conv2d_11_output                       4096/4096       activations/**default**   s8                    
21     conv2d_11_scratch0                     544/544         activations/**default**   s8                    
22     conv2d_11_weights                      1536/1536       weights/weights           const s8              
23     conv2d_13_bias                         96/384          weights/weights           const s32             
24     conv2d_13_output                       24576/24576     activations/**default**   s8                    
25     conv2d_13_scratch0                     1024/1024       activations/**default**   s8                    
26     conv2d_13_weights                      1536/1536       weights/weights           const s8              
27     conv2d_14_bias                         96/384          weights/weights           const s32             
28     conv2d_14_output                       6144/6144       activations/**default**   s8                    
29     conv2d_14_pad_before_output            31104/31104     activations/**default**   s8                    
30     conv2d_14_scratch0                     3553/3553       activations/**default**   s8                    
31     conv2d_14_weights                      864/864         weights/weights           const s8              
32     conv2d_15_bias                         16/64           weights/weights           const s32             
33     conv2d_15_output                       1024/1024       activations/**default**   s8                    
34     conv2d_15_scratch0                     544/544         activations/**default**   s8                    
35     conv2d_15_weights                      1536/1536       weights/weights           const s8              
36     conv2d_19_bias                         96/384          weights/weights           const s32             
37     conv2d_19_output                       6144/6144       activations/**default**   s8                    
38     conv2d_19_scratch0                     1024/1024       activations/**default**   s8                    
39     conv2d_19_weights                      1536/1536       weights/weights           const s8              
40     conv2d_1_bias                          16/64           weights/weights           const s32             
41     conv2d_1_output                        16384/16384     activations/**default**   s8                    
42     conv2d_1_pad_before_output             18496/18496     activations/**default**   s8                    
43     conv2d_1_scratch0                      593/593         activations/**default**   s8                    
44     conv2d_1_weights                       144/144         weights/weights           const s8              
45     conv2d_20_bias                         96/384          weights/weights           const s32             
46     conv2d_20_output                       6144/6144       activations/**default**   s8                    
47     conv2d_20_pad_before_output            9600/9600       activations/**default**   s8                    
48     conv2d_20_scratch0                     3553/3553       activations/**default**   s8                    
49     conv2d_20_weights                      864/864         weights/weights           const s8              
50     conv2d_21_bias                         16/64           weights/weights           const s32             
51     conv2d_21_output                       1024/1024       activations/**default**   s8                    
52     conv2d_21_scratch0                     544/544         activations/**default**   s8                    
53     conv2d_21_weights                      1536/1536       weights/weights           const s8              
54     conv2d_26_bias                         96/384          weights/weights           const s32             
55     conv2d_26_output                       6144/6144       activations/**default**   s8                    
56     conv2d_26_scratch0                     1024/1024       activations/**default**   s8                    
57     conv2d_26_weights                      1536/1536       weights/weights           const s8              
58     conv2d_27_bias                         96/384          weights/weights           const s32             
59     conv2d_27_output                       6144/6144       activations/**default**   s8                    
60     conv2d_27_pad_before_output            9600/9600       activations/**default**   s8                    
61     conv2d_27_scratch0                     3553/3553       activations/**default**   s8                    
62     conv2d_27_weights                      864/864         weights/weights           const s8              
63     conv2d_28_bias                         16/64           weights/weights           const s32             
64     conv2d_28_output                       1024/1024       activations/**default**   s8                    
65     conv2d_28_scratch0                     544/544         activations/**default**   s8                    
66     conv2d_28_weights                      1536/1536       weights/weights           const s8              
67     conv2d_2_bias                          8/32            weights/weights           const s32             
68     conv2d_2_output                        8192/8192       activations/**default**   s8                    
69     conv2d_2_scratch0                      144/144         activations/**default**   s8                    
70     conv2d_2_weights                       128/128         weights/weights           const s8              
71     conv2d_30_bias                         96/384          weights/weights           const s32             
72     conv2d_30_output                       6144/6144       activations/**default**   s8                    
73     conv2d_30_scratch0                     1024/1024       activations/**default**   s8                    
74     conv2d_30_weights                      1536/1536       weights/weights           const s8              
75     conv2d_31_bias                         96/384          weights/weights           const s32             
76     conv2d_31_output                       1536/1536       activations/**default**   s8                    
77     conv2d_31_pad_before_output            9600/9600       activations/**default**   s8                    
78     conv2d_31_scratch0                     3553/3553       activations/**default**   s8                    
79     conv2d_31_weights                      864/864         weights/weights           const s8              
80     conv2d_32_bias                         32/128          weights/weights           const s32             
81     conv2d_32_output                       512/512         activations/**default**   s8                    
82     conv2d_32_scratch0                     704/704         activations/**default**   s8                    
83     conv2d_32_weights                      3072/3072       weights/weights           const s8              
84     conv2d_36_bias                         192/768         weights/weights           const s32             
85     conv2d_36_output                       3072/3072       activations/**default**   s8                    
86     conv2d_36_scratch0                     2048/2048       activations/**default**   s8                    
87     conv2d_36_weights                      6144/6144       weights/weights           const s8              
88     conv2d_37_bias                         192/768         weights/weights           const s32             
89     conv2d_37_output                       3072/3072       activations/**default**   s8                    
90     conv2d_37_pad_before_output            6912/6912       activations/**default**   s8                    
91     conv2d_37_scratch0                     7105/7105       activations/**default**   s8                    
92     conv2d_37_weights                      1728/1728       weights/weights           const s8              
93     conv2d_38_bias                         32/128          weights/weights           const s32             
94     conv2d_38_output                       512/512         activations/**default**   s8                    
95     conv2d_38_scratch0                     1088/1088       activations/**default**   s8                    
96     conv2d_38_weights                      6144/6144       weights/weights           const s8              
97     conv2d_3_bias                          48/192          weights/weights           const s32             
98     conv2d_3_output                        49152/49152     activations/**default**   s8                    
99     conv2d_3_scratch0                      512/512         activations/**default**   s8                    
100    conv2d_3_weights                       384/384         weights/weights           const s8              
101    conv2d_43_bias                         192/768         weights/weights           const s32             
102    conv2d_43_output                       3072/3072       activations/**default**   s8                    
103    conv2d_43_scratch0                     2048/2048       activations/**default**   s8                    
104    conv2d_43_weights                      6144/6144       weights/weights           const s8              
105    conv2d_44_bias                         192/768         weights/weights           const s32             
106    conv2d_44_output                       3072/3072       activations/**default**   s8                    
107    conv2d_44_pad_before_output            6912/6912       activations/**default**   s8                    
108    conv2d_44_scratch0                     7105/7105       activations/**default**   s8                    
109    conv2d_44_weights                      1728/1728       weights/weights           const s8              
110    conv2d_45_bias                         32/128          weights/weights           const s32             
111    conv2d_45_output                       512/512         activations/**default**   s8                    
112    conv2d_45_scratch0                     1088/1088       activations/**default**   s8                    
113    conv2d_45_weights                      6144/6144       weights/weights           const s8              
114    conv2d_4_bias                          48/192          weights/weights           const s32             
115    conv2d_4_output                        12288/12288     activations/**default**   s8                    
116    conv2d_4_pad_before_output             55488/55488     activations/**default**   s8                    
117    conv2d_4_scratch0                      1777/1777       activations/**default**   s8                    
118    conv2d_4_weights                       432/432         weights/weights           const s8              
119    conv2d_50_bias                         192/768         weights/weights           const s32             
120    conv2d_50_output                       3072/3072       activations/**default**   s8                    
121    conv2d_50_scratch0                     2048/2048       activations/**default**   s8                    
122    conv2d_50_weights                      6144/6144       weights/weights           const s8              
123    conv2d_51_bias                         192/768         weights/weights           const s32             
124    conv2d_51_output                       3072/3072       activations/**default**   s8                    
125    conv2d_51_pad_before_output            6912/6912       activations/**default**   s8                    
126    conv2d_51_scratch0                     7105/7105       activations/**default**   s8                    
127    conv2d_51_weights                      1728/1728       weights/weights           const s8              
128    conv2d_52_bias                         32/128          weights/weights           const s32             
129    conv2d_52_output                       512/512         activations/**default**   s8                    
130    conv2d_52_scratch0                     1088/1088       activations/**default**   s8                    
131    conv2d_52_weights                      6144/6144       weights/weights           const s8              
132    conv2d_54_bias                         192/768         weights/weights           const s32             
133    conv2d_54_output                       3072/3072       activations/**default**   s8                    
134    conv2d_54_scratch0                     2048/2048       activations/**default**   s8                    
135    conv2d_54_weights                      6144/6144       weights/weights           const s8              
136    conv2d_55_bias                         192/768         weights/weights           const s32             
137    conv2d_55_output                       3072/3072       activations/**default**   s8                    
138    conv2d_55_pad_before_output            6912/6912       activations/**default**   s8                    
139    conv2d_55_scratch0                     7105/7105       activations/**default**   s8                    
140    conv2d_55_weights                      1728/1728       weights/weights           const s8              
141    conv2d_56_bias                         48/192          weights/weights           const s32             
142    conv2d_56_output                       768/768         activations/**default**   s8                    
143    conv2d_56_scratch0                     1248/1248       activations/**default**   s8                    
144    conv2d_56_weights                      9216/9216       weights/weights           const s8              
145    conv2d_5_bias                          16/64           weights/weights           const s32             
146    conv2d_5_output                        4096/4096       activations/**default**   s8                    
147    conv2d_5_scratch0                      352/352         activations/**default**   s8                    
148    conv2d_5_weights                       768/768         weights/weights           const s8              
149    conv2d_60_bias                         288/1152        weights/weights           const s32             
150    conv2d_60_output                       4608/4608       activations/**default**   s8                    
151    conv2d_60_scratch0                     3072/3072       activations/**default**   s8                    
152    conv2d_60_weights                      13824/13824     weights/weights           const s8              
153    conv2d_61_bias                         288/1152        weights/weights           const s32             
154    conv2d_61_output                       4608/4608       activations/**default**   s8                    
155    conv2d_61_pad_before_output            10368/10368     activations/**default**   s8                    
156    conv2d_61_scratch0                     10657/10657     activations/**default**   s8                    
157    conv2d_61_weights                      2592/2592       weights/weights           const s8              
158    conv2d_62_bias                         48/192          weights/weights           const s32             
159    conv2d_62_output                       768/768         activations/**default**   s8                    
160    conv2d_62_scratch0                     1632/1632       activations/**default**   s8                    
161    conv2d_62_weights                      13824/13824     weights/weights           const s8              
162    conv2d_67_bias                         288/1152        weights/weights           const s32             
163    conv2d_67_output                       4608/4608       activations/**default**   s8                    
164    conv2d_67_scratch0                     3072/3072       activations/**default**   s8                    
165    conv2d_67_weights                      13824/13824     weights/weights           const s8              
166    conv2d_68_bias                         288/1152        weights/weights           const s32             
167    conv2d_68_output                       4608/4608       activations/**default**   s8                    
168    conv2d_68_pad_before_output            10368/10368     activations/**default**   s8                    
169    conv2d_68_scratch0                     10657/10657     activations/**default**   s8                    
170    conv2d_68_weights                      2592/2592       weights/weights           const s8              
171    conv2d_69_bias                         48/192          weights/weights           const s32             
172    conv2d_69_output                       768/768         activations/**default**   s8                    
173    conv2d_69_scratch0                     1632/1632       activations/**default**   s8                    
174    conv2d_69_weights                      13824/13824     weights/weights           const s8              
175    conv2d_71_bias                         288/1152        weights/weights           const s32             
176    conv2d_71_output                       4608/4608       activations/**default**   s8                    
177    conv2d_71_scratch0                     3072/3072       activations/**default**   s8                    
178    conv2d_71_weights                      13824/13824     weights/weights           const s8              
179    conv2d_72_bias                         288/1152        weights/weights           const s32             
180    conv2d_72_output                       1152/1152       activations/**default**   s8                    
181    conv2d_72_pad_before_output            10368/10368     activations/**default**   s8                    
182    conv2d_72_scratch0                     10657/10657     activations/**default**   s8                    
183    conv2d_72_weights                      2592/2592       weights/weights           const s8              
184    conv2d_73_bias                         80/320          weights/weights           const s32             
185    conv2d_73_output                       320/320         activations/**default**   s8                    
186    conv2d_73_scratch0                     1952/1952       activations/**default**   s8                    
187    conv2d_73_weights                      23040/23040     weights/weights           const s8              
188    conv2d_77_bias                         480/1920        weights/weights           const s32             
189    conv2d_77_output                       1920/1920       activations/**default**   s8                    
190    conv2d_77_scratch0                     5120/5120       activations/**default**   s8                    
191    conv2d_77_weights                      38400/38400     weights/weights           const s8              
192    conv2d_78_bias                         480/1920        weights/weights           const s32             
193    conv2d_78_output                       1920/1920       activations/**default**   s8                    
194    conv2d_78_pad_before_output            7680/7680       activations/**default**   s8                    
195    conv2d_78_scratch0                     17761/17761     activations/**default**   s8                    
196    conv2d_78_weights                      4320/4320       weights/weights           const s8              
197    conv2d_79_bias                         80/320          weights/weights           const s32             
198    conv2d_79_output                       320/320         activations/**default**   s8                    
199    conv2d_79_scratch0                     2720/2720       activations/**default**   s8                    
200    conv2d_79_weights                      38400/38400     weights/weights           const s8              
201    conv2d_84_bias                         480/1920        weights/weights           const s32             
202    conv2d_84_output                       1920/1920       activations/**default**   s8                    
203    conv2d_84_scratch0                     5120/5120       activations/**default**   s8                    
204    conv2d_84_weights                      38400/38400     weights/weights           const s8              
205    conv2d_85_bias                         480/1920        weights/weights           const s32             
206    conv2d_85_output                       1920/1920       activations/**default**   s8                    
207    conv2d_85_pad_before_output            7680/7680       activations/**default**   s8                    
208    conv2d_85_scratch0                     17761/17761     activations/**default**   s8                    
209    conv2d_85_weights                      4320/4320       weights/weights           const s8              
210    conv2d_86_bias                         80/320          weights/weights           const s32             
211    conv2d_86_output                       320/320         activations/**default**   s8                    
212    conv2d_86_scratch0                     2720/2720       activations/**default**   s8                    
213    conv2d_86_weights                      38400/38400     weights/weights           const s8              
214    conv2d_88_bias                         480/1920        weights/weights           const s32             
215    conv2d_88_output                       1920/1920       activations/**default**   s8                    
216    conv2d_88_scratch0                     5120/5120       activations/**default**   s8                    
217    conv2d_88_weights                      38400/38400     weights/weights           const s8              
218    conv2d_89_bias                         480/1920        weights/weights           const s32             
219    conv2d_89_output                       1920/1920       activations/**default**   s8                    
220    conv2d_89_pad_before_output            7680/7680       activations/**default**   s8                    
221    conv2d_89_scratch0                     17761/17761     activations/**default**   s8                    
222    conv2d_89_weights                      4320/4320       weights/weights           const s8              
223    conv2d_90_bias                         160/640         weights/weights           const s32             
224    conv2d_90_output                       640/640         activations/**default**   s8                    
225    conv2d_90_scratch0                     3520/3520       activations/**default**   s8                    
226    conv2d_90_weights                      76800/76800     weights/weights           const s8              
227    conv2d_91_bias                         1280/5120       weights/weights           const s32             
228    conv2d_91_output                       5120/5120       activations/**default**   s8                    
229    conv2d_91_scratch0                     13440/13440     activations/**default**   s8                    
230    conv2d_91_weights                      204800/204800   weights/weights           const s8              
231    conv2d_9_bias                          96/384          weights/weights           const s32             
232    conv2d_9_output                        24576/24576     activations/**default**   s8                    
233    conv2d_9_scratch0                      1024/1024       activations/**default**   s8                    
234    conv2d_9_weights                       1536/1536       weights/weights           const s8              
235    eltwise_12_output                      4096/4096       activations/**default**   s8                    
236    eltwise_22_output                      1024/1024       activations/**default**   s8                    
237    eltwise_29_output                      1024/1024       activations/**default**   s8                    
238    eltwise_39_output                      512/512         activations/**default**   s8                    
239    eltwise_46_output                      512/512         activations/**default**   s8                    
240    eltwise_53_output                      512/512         activations/**default**   s8                    
241    eltwise_63_output                      768/768         activations/**default**   s8                    
242    eltwise_70_output                      768/768         activations/**default**   s8                    
243    eltwise_80_output                      320/320         activations/**default**   s8                    
244    eltwise_87_output                      320/320         activations/**default**   s8                    
245    gemm_93_bias                           27/108          weights/weights           const s32             
246    gemm_93_output                         27/27           activations/**default**   s8          /output   
247    gemm_93_scratch0                       1280/2560       activations/**default**   s16                   
248    gemm_93_weights                        34560/34560     weights/weights           const s8              
249    pool_92_output                         1280/1280       activations/**default**   s8                    
250    serving_default_cache_b11_in0_output   96/96           activations/**default**   s8          /input    
251    serving_default_cache_b12_in0_output   96/96           activations/**default**   s8          /input    
252    serving_default_cache_b14_in0_output   40/40           activations/**default**   s8          /input    
253    serving_default_cache_b15_in0_output   40/40           activations/**default**   s8          /input    
254    serving_default_cache_b2_in0_output    512/512         activations/**default**   s8          /input    
255    serving_default_cache_b4_in0_output    128/128         activations/**default**   s8          /input    
256    serving_default_cache_b5_in0_output    128/128         activations/**default**   s8          /input    
257    serving_default_cache_b7_in0_output    64/64           activations/**default**   s8          /input    
258    serving_default_cache_b8_in0_output    64/64           activations/**default**   s8          /input    
259    serving_default_cache_b9_in0_output    64/64           activations/**default**   s8          /input    
260    serving_default_frame_in0_output       4096/4096       activations/**default**   s8          /input    
261    slice_16_output                        128/128         activations/**default**   s8          /output   
262    slice_17_output                        896/896         activations/**default**   s8                    
263    slice_23_output                        128/128         activations/**default**   s8          /output   
264    slice_24_output                        896/896         activations/**default**   s8                    
265    slice_33_output                        64/64           activations/**default**   s8          /output   
266    slice_34_output                        448/448         activations/**default**   s8                    
267    slice_40_output                        64/64           activations/**default**   s8          /output   
268    slice_41_output                        448/448         activations/**default**   s8                    
269    slice_47_output                        64/64           activations/**default**   s8          /output   
270    slice_48_output                        448/448         activations/**default**   s8                    
271    slice_57_output                        96/96           activations/**default**   s8          /output   
272    slice_58_output                        672/672         activations/**default**   s8                    
273    slice_64_output                        96/96           activations/**default**   s8          /output   
274    slice_65_output                        672/672         activations/**default**   s8                    
275    slice_6_output                         512/512         activations/**default**   s8          /output   
276    slice_74_output                        40/40           activations/**default**   s8          /output   
277    slice_75_output                        280/280         activations/**default**   s8                    
278    slice_7_output                         3584/3584       activations/**default**   s8                    
279    slice_81_output                        40/40           activations/**default**   s8          /output   
280    slice_82_output                        280/280         activations/**default**   s8                    
------ -------------------------------------- --------------- ------------------------- ----------- --------- 

C-Layers (111)
------ ---------------------- ---- -------------- -------- -------- ----------------------------------------- -------------------------- 
c_id   name (*_layer)         id   layer_type     macc     rom      tensors                                   shape (array id)           
------ ---------------------- ---- -------------- -------- -------- ----------------------------------------- -------------------------- 
0      conv2d_0               0    Conv2D         147472   208      I: serving_default_frame_in0_output       int8(1x64x64x1) (260)      
                                                                    S: conv2d_0_scratch0                                                 
                                                                    W: conv2d_0_weights                       int8(16x3x3x1) (13)        
                                                                    W: conv2d_0_bias                          int32(16) (10)             
                                                                    O: conv2d_0_output                        int8(1x32x32x16) (11)      
------ ---------------------- ---- -------------- -------- -------- ----------------------------------------- -------------------------- 
1      conv2d_1_pad_before    1    Pad            0        0        I: conv2d_0_output                        int8(1x32x32x16) (11)      
                                                                    O: conv2d_1_pad_before_output             int8(1x34x34x16) (42)      
------ ---------------------- ---- -------------- -------- -------- ----------------------------------------- -------------------------- 
2      conv2d_1               1    Conv2D         147472   208      I: conv2d_1_pad_before_output             int8(1x34x34x16) (42)      
                                                                    S: conv2d_1_scratch0                                                 
                                                                    W: conv2d_1_weights                       int8(1x3x3x16) (44)        
                                                                    W: conv2d_1_bias                          int32(16) (40)             
                                                                    O: conv2d_1_output                        int8(1x32x32x16) (41)      
------ ---------------------- ---- -------------- -------- -------- ----------------------------------------- -------------------------- 
3      conv2d_2               2    Conv2D         131080   160      I: conv2d_1_output                        int8(1x32x32x16) (41)      
                                                                    S: conv2d_2_scratch0                                                 
                                                                    W: conv2d_2_weights                       int8(8x1x1x16) (70)        
                                                                    W: conv2d_2_bias                          int32(8) (67)              
                                                                    O: conv2d_2_output                        int8(1x32x32x8) (68)       
------ ---------------------- ---- -------------- -------- -------- ----------------------------------------- -------------------------- 
4      conv2d_3               3    Conv2D         393264   576      I: conv2d_2_output                        int8(1x32x32x8) (68)       
                                                                    S: conv2d_3_scratch0                                                 
                                                                    W: conv2d_3_weights                       int8(48x1x1x8) (100)       
                                                                    W: conv2d_3_bias                          int32(48) (97)             
                                                                    O: conv2d_3_output                        int8(1x32x32x48) (98)      
------ ---------------------- ---- -------------- -------- -------- ----------------------------------------- -------------------------- 
5      conv2d_4_pad_before    4    Pad            0        0        I: conv2d_3_output                        int8(1x32x32x48) (98)      
                                                                    O: conv2d_4_pad_before_output             int8(1x34x34x48) (116)     
------ ---------------------- ---- -------------- -------- -------- ----------------------------------------- -------------------------- 
6      conv2d_4               4    Conv2D         110640   624      I: conv2d_4_pad_before_output             int8(1x34x34x48) (116)     
                                                                    S: conv2d_4_scratch0                                                 
                                                                    W: conv2d_4_weights                       int8(1x3x3x48) (118)       
                                                                    W: conv2d_4_bias                          int32(48) (114)            
                                                                    O: conv2d_4_output                        int8(1x16x16x48) (115)     
------ ---------------------- ---- -------------- -------- -------- ----------------------------------------- -------------------------- 
7      conv2d_5               5    Conv2D         196624   832      I: conv2d_4_output                        int8(1x16x16x48) (115)     
                                                                    S: conv2d_5_scratch0                                                 
                                                                    W: conv2d_5_weights                       int8(16x1x1x48) (148)      
                                                                    W: conv2d_5_bias                          int32(16) (145)            
                                                                    O: conv2d_5_output                        int8(1x16x16x16) (146)     
------ ---------------------- ---- -------------- -------- -------- ----------------------------------------- -------------------------- 
8      slice_7                7    Slice          0        0        I: conv2d_5_output                        int8(1x16x16x16) (146)     
                                                                    O: slice_7_output                         int8(1x16x16x14) (278)     
------ ---------------------- ---- -------------- -------- -------- ----------------------------------------- -------------------------- 
9      concat_8               8    Concat         0        0        I: serving_default_cache_b2_in0_output    int8(1x16x16x2) (254)      
                                                                    I: slice_7_output                         int8(1x16x16x2) (254)      
                                                                    O: concat_8_output                        int8(1x16x16x16) (9)       
------ ---------------------- ---- -------------- -------- -------- ----------------------------------------- -------------------------- 
10     conv2d_9               9    Conv2D         393312   1920     I: concat_8_output                        int8(1x16x16x16) (9)       
                                                                    S: conv2d_9_scratch0                                                 
                                                                    W: conv2d_9_weights                       int8(96x1x1x16) (234)      
                                                                    W: conv2d_9_bias                          int32(96) (231)            
                                                                    O: conv2d_9_output                        int8(1x16x16x96) (232)     
------ ---------------------- ---- -------------- -------- -------- ----------------------------------------- -------------------------- 
11     conv2d_10_pad_before   10   Pad            0        0        I: conv2d_9_output                        int8(1x16x16x96) (232)     
                                                                    O: conv2d_10_pad_before_output            int8(1x18x18x96) (16)      
------ ---------------------- ---- -------------- -------- -------- ----------------------------------------- -------------------------- 
12     conv2d_10              10   Conv2D         221280   1248     I: conv2d_10_pad_before_output            int8(1x18x18x96) (16)      
                                                                    S: conv2d_10_scratch0                                                
                                                                    W: conv2d_10_weights                      int8(1x3x3x96) (18)        
                                                                    W: conv2d_10_bias                         int32(96) (14)             
                                                                    O: conv2d_10_output                       int8(1x16x16x96) (15)      
------ ---------------------- ---- -------------- -------- -------- ----------------------------------------- -------------------------- 
13     conv2d_11              11   Conv2D         393232   1600     I: conv2d_10_output                       int8(1x16x16x96) (15)      
                                                                    S: conv2d_11_scratch0                                                
                                                                    W: conv2d_11_weights                      int8(16x1x1x96) (22)       
                                                                    W: conv2d_11_bias                         int32(16) (19)             
                                                                    O: conv2d_11_output                       int8(1x16x16x16) (20)      
------ ---------------------- ---- -------------- -------- -------- ----------------------------------------- -------------------------- 
14     eltwise_12             12   Eltwise/add    4096     0        I: concat_8_output                        int8(1x16x16x16) (9)       
                                                                    I: conv2d_11_output                       int8(1x16x16x16) (9)       
                                                                    O: eltwise_12_output                      int8(1x16x16x16) (235)     
------ ---------------------- ---- -------------- -------- -------- ----------------------------------------- -------------------------- 
15     conv2d_13              13   Conv2D         393312   1920     I: eltwise_12_output                      int8(1x16x16x16) (235)     
                                                                    S: conv2d_13_scratch0                                                
                                                                    W: conv2d_13_weights                      int8(96x1x1x16) (26)       
                                                                    W: conv2d_13_bias                         int32(96) (23)             
                                                                    O: conv2d_13_output                       int8(1x16x16x96) (24)      
------ ---------------------- ---- -------------- -------- -------- ----------------------------------------- -------------------------- 
16     conv2d_14_pad_before   14   Pad            0        0        I: conv2d_13_output                       int8(1x16x16x96) (24)      
                                                                    O: conv2d_14_pad_before_output            int8(1x18x18x96) (29)      
------ ---------------------- ---- -------------- -------- -------- ----------------------------------------- -------------------------- 
17     conv2d_14              14   Conv2D         55392    1248     I: conv2d_14_pad_before_output            int8(1x18x18x96) (29)      
                                                                    S: conv2d_14_scratch0                                                
                                                                    W: conv2d_14_weights                      int8(1x3x3x96) (31)        
                                                                    W: conv2d_14_bias                         int32(96) (27)             
                                                                    O: conv2d_14_output                       int8(1x8x8x96) (28)        
------ ---------------------- ---- -------------- -------- -------- ----------------------------------------- -------------------------- 
18     conv2d_15              15   Conv2D         98320    1600     I: conv2d_14_output                       int8(1x8x8x96) (28)        
                                                                    S: conv2d_15_scratch0                                                
                                                                    W: conv2d_15_weights                      int8(16x1x1x96) (35)       
                                                                    W: conv2d_15_bias                         int32(16) (32)             
                                                                    O: conv2d_15_output                       int8(1x8x8x16) (33)        
------ ---------------------- ---- -------------- -------- -------- ----------------------------------------- -------------------------- 
19     slice_17               17   Slice          0        0        I: conv2d_15_output                       int8(1x8x8x16) (33)        
                                                                    O: slice_17_output                        int8(1x8x8x14) (262)       
------ ---------------------- ---- -------------- -------- -------- ----------------------------------------- -------------------------- 
20     concat_18              18   Concat         0        0        I: serving_default_cache_b4_in0_output    int8(1x8x8x2) (255)        
                                                                    I: slice_17_output                        int8(1x8x8x2) (255)        
                                                                    O: concat_18_output                       int8(1x8x8x16) (0)         
------ ---------------------- ---- -------------- -------- -------- ----------------------------------------- -------------------------- 
21     conv2d_19              19   Conv2D         98400    1920     I: concat_18_output                       int8(1x8x8x16) (0)         
                                                                    S: conv2d_19_scratch0                                                
                                                                    W: conv2d_19_weights                      int8(96x1x1x16) (39)       
                                                                    W: conv2d_19_bias                         int32(96) (36)             
                                                                    O: conv2d_19_output                       int8(1x8x8x96) (37)        
------ ---------------------- ---- -------------- -------- -------- ----------------------------------------- -------------------------- 
22     conv2d_20_pad_before   20   Pad            0        0        I: conv2d_19_output                       int8(1x8x8x96) (37)        
                                                                    O: conv2d_20_pad_before_output            int8(1x10x10x96) (47)      
------ ---------------------- ---- -------------- -------- -------- ----------------------------------------- -------------------------- 
23     conv2d_20              20   Conv2D         55392    1248     I: conv2d_20_pad_before_output            int8(1x10x10x96) (47)      
                                                                    S: conv2d_20_scratch0                                                
                                                                    W: conv2d_20_weights                      int8(1x3x3x96) (49)        
                                                                    W: conv2d_20_bias                         int32(96) (45)             
                                                                    O: conv2d_20_output                       int8(1x8x8x96) (46)        
------ ---------------------- ---- -------------- -------- -------- ----------------------------------------- -------------------------- 
24     conv2d_21              21   Conv2D         98320    1600     I: conv2d_20_output                       int8(1x8x8x96) (46)        
                                                                    S: conv2d_21_scratch0                                                
                                                                    W: conv2d_21_weights                      int8(16x1x1x96) (53)       
                                                                    W: conv2d_21_bias                         int32(16) (50)             
                                                                    O: conv2d_21_output                       int8(1x8x8x16) (51)        
------ ---------------------- ---- -------------- -------- -------- ----------------------------------------- -------------------------- 
25     eltwise_22             22   Eltwise/add    1024     0        I: concat_18_output                       int8(1x8x8x16) (0)         
                                                                    I: conv2d_21_output                       int8(1x8x8x16) (0)         
                                                                    O: eltwise_22_output                      int8(1x8x8x16) (236)       
------ ---------------------- ---- -------------- -------- -------- ----------------------------------------- -------------------------- 
26     slice_24               24   Slice          0        0        I: eltwise_22_output                      int8(1x8x8x16) (236)       
                                                                    O: slice_24_output                        int8(1x8x8x14) (264)       
------ ---------------------- ---- -------------- -------- -------- ----------------------------------------- -------------------------- 
27     concat_25              25   Concat         0        0        I: serving_default_cache_b5_in0_output    int8(1x8x8x2) (256)        
                                                                    I: slice_24_output                        int8(1x8x8x2) (256)        
                                                                    O: concat_25_output                       int8(1x8x8x16) (1)         
------ ---------------------- ---- -------------- -------- -------- ----------------------------------------- -------------------------- 
28     conv2d_26              26   Conv2D         98400    1920     I: concat_25_output                       int8(1x8x8x16) (1)         
                                                                    S: conv2d_26_scratch0                                                
                                                                    W: conv2d_26_weights                      int8(96x1x1x16) (57)       
                                                                    W: conv2d_26_bias                         int32(96) (54)             
                                                                    O: conv2d_26_output                       int8(1x8x8x96) (55)        
------ ---------------------- ---- -------------- -------- -------- ----------------------------------------- -------------------------- 
29     conv2d_27_pad_before   27   Pad            0        0        I: conv2d_26_output                       int8(1x8x8x96) (55)        
                                                                    O: conv2d_27_pad_before_output            int8(1x10x10x96) (60)      
------ ---------------------- ---- -------------- -------- -------- ----------------------------------------- -------------------------- 
30     conv2d_27              27   Conv2D         55392    1248     I: conv2d_27_pad_before_output            int8(1x10x10x96) (60)      
                                                                    S: conv2d_27_scratch0                                                
                                                                    W: conv2d_27_weights                      int8(1x3x3x96) (62)        
                                                                    W: conv2d_27_bias                         int32(96) (58)             
                                                                    O: conv2d_27_output                       int8(1x8x8x96) (59)        
------ ---------------------- ---- -------------- -------- -------- ----------------------------------------- -------------------------- 
31     conv2d_28              28   Conv2D         98320    1600     I: conv2d_27_output                       int8(1x8x8x96) (59)        
                                                                    S: conv2d_28_scratch0                                                
                                                                    W: conv2d_28_weights                      int8(16x1x1x96) (66)       
                                                                    W: conv2d_28_bias                         int32(16) (63)             
                                                                    O: conv2d_28_output                       int8(1x8x8x16) (64)        
------ ---------------------- ---- -------------- -------- -------- ----------------------------------------- -------------------------- 
32     eltwise_29             29   Eltwise/add    1024     0        I: concat_25_output                       int8(1x8x8x16) (1)         
                                                                    I: conv2d_28_output                       int8(1x8x8x16) (1)         
                                                                    O: eltwise_29_output                      int8(1x8x8x16) (237)       
------ ---------------------- ---- -------------- -------- -------- ----------------------------------------- -------------------------- 
33     conv2d_30              30   Conv2D         98400    1920     I: eltwise_29_output                      int8(1x8x8x16) (237)       
                                                                    S: conv2d_30_scratch0                                                
                                                                    W: conv2d_30_weights                      int8(96x1x1x16) (74)       
                                                                    W: conv2d_30_bias                         int32(96) (71)             
                                                                    O: conv2d_30_output                       int8(1x8x8x96) (72)        
------ ---------------------- ---- -------------- -------- -------- ----------------------------------------- -------------------------- 
34     conv2d_31_pad_before   31   Pad            0        0        I: conv2d_30_output                       int8(1x8x8x96) (72)        
                                                                    O: conv2d_31_pad_before_output            int8(1x10x10x96) (77)      
------ ---------------------- ---- -------------- -------- -------- ----------------------------------------- -------------------------- 
35     conv2d_31              31   Conv2D         13920    1248     I: conv2d_31_pad_before_output            int8(1x10x10x96) (77)      
                                                                    S: conv2d_31_scratch0                                                
                                                                    W: conv2d_31_weights                      int8(1x3x3x96) (79)        
                                                                    W: conv2d_31_bias                         int32(96) (75)             
                                                                    O: conv2d_31_output                       int8(1x4x4x96) (76)        
------ ---------------------- ---- -------------- -------- -------- ----------------------------------------- -------------------------- 
36     conv2d_32              32   Conv2D         49184    3200     I: conv2d_31_output                       int8(1x4x4x96) (76)        
                                                                    S: conv2d_32_scratch0                                                
                                                                    W: conv2d_32_weights                      int8(32x1x1x96) (83)       
                                                                    W: conv2d_32_bias                         int32(32) (80)             
                                                                    O: conv2d_32_output                       int8(1x4x4x32) (81)        
------ ---------------------- ---- -------------- -------- -------- ----------------------------------------- -------------------------- 
37     slice_34               34   Slice          0        0        I: conv2d_32_output                       int8(1x4x4x32) (81)        
                                                                    O: slice_34_output                        int8(1x4x4x28) (266)       
------ ---------------------- ---- -------------- -------- -------- ----------------------------------------- -------------------------- 
38     concat_35              35   Concat         0        0        I: serving_default_cache_b7_in0_output    int8(1x4x4x4) (257)        
                                                                    I: slice_34_output                        int8(1x4x4x4) (257)        
                                                                    O: concat_35_output                       int8(1x4x4x32) (2)         
------ ---------------------- ---- -------------- -------- -------- ----------------------------------------- -------------------------- 
39     conv2d_36              36   Conv2D         98496    6912     I: concat_35_output                       int8(1x4x4x32) (2)         
                                                                    S: conv2d_36_scratch0                                                
                                                                    W: conv2d_36_weights                      int8(192x1x1x32) (87)      
                                                                    W: conv2d_36_bias                         int32(192) (84)            
                                                                    O: conv2d_36_output                       int8(1x4x4x192) (85)       
------ ---------------------- ---- -------------- -------- -------- ----------------------------------------- -------------------------- 
40     conv2d_37_pad_before   37   Pad            0        0        I: conv2d_36_output                       int8(1x4x4x192) (85)       
                                                                    O: conv2d_37_pad_before_output            int8(1x6x6x192) (90)       
------ ---------------------- ---- -------------- -------- -------- ----------------------------------------- -------------------------- 
41     conv2d_37              37   Conv2D         27840    2496     I: conv2d_37_pad_before_output            int8(1x6x6x192) (90)       
                                                                    S: conv2d_37_scratch0                                                
                                                                    W: conv2d_37_weights                      int8(1x3x3x192) (92)       
                                                                    W: conv2d_37_bias                         int32(192) (88)            
                                                                    O: conv2d_37_output                       int8(1x4x4x192) (89)       
------ ---------------------- ---- -------------- -------- -------- ----------------------------------------- -------------------------- 
42     conv2d_38              38   Conv2D         98336    6272     I: conv2d_37_output                       int8(1x4x4x192) (89)       
                                                                    S: conv2d_38_scratch0                                                
                                                                    W: conv2d_38_weights                      int8(32x1x1x192) (96)      
                                                                    W: conv2d_38_bias                         int32(32) (93)             
                                                                    O: conv2d_38_output                       int8(1x4x4x32) (94)        
------ ---------------------- ---- -------------- -------- -------- ----------------------------------------- -------------------------- 
43     eltwise_39             39   Eltwise/add    512      0        I: concat_35_output                       int8(1x4x4x32) (2)         
                                                                    I: conv2d_38_output                       int8(1x4x4x32) (2)         
                                                                    O: eltwise_39_output                      int8(1x4x4x32) (238)       
------ ---------------------- ---- -------------- -------- -------- ----------------------------------------- -------------------------- 
44     slice_41               41   Slice          0        0        I: eltwise_39_output                      int8(1x4x4x32) (238)       
                                                                    O: slice_41_output                        int8(1x4x4x28) (268)       
------ ---------------------- ---- -------------- -------- -------- ----------------------------------------- -------------------------- 
45     concat_42              42   Concat         0        0        I: serving_default_cache_b8_in0_output    int8(1x4x4x4) (258)        
                                                                    I: slice_41_output                        int8(1x4x4x4) (258)        
                                                                    O: concat_42_output                       int8(1x4x4x32) (3)         
------ ---------------------- ---- -------------- -------- -------- ----------------------------------------- -------------------------- 
46     conv2d_43              43   Conv2D         98496    6912     I: concat_42_output                       int8(1x4x4x32) (3)         
                                                                    S: conv2d_43_scratch0                                                
                                                                    W: conv2d_43_weights                      int8(192x1x1x32) (104)     
                                                                    W: conv2d_43_bias                         int32(192) (101)           
                                                                    O: conv2d_43_output                       int8(1x4x4x192) (102)      
------ ---------------------- ---- -------------- -------- -------- ----------------------------------------- -------------------------- 
47     conv2d_44_pad_before   44   Pad            0        0        I: conv2d_43_output                       int8(1x4x4x192) (102)      
                                                                    O: conv2d_44_pad_before_output            int8(1x6x6x192) (107)      
------ ---------------------- ---- -------------- -------- -------- ----------------------------------------- -------------------------- 
48     conv2d_44              44   Conv2D         27840    2496     I: conv2d_44_pad_before_output            int8(1x6x6x192) (107)      
                                                                    S: conv2d_44_scratch0                                                
                                                                    W: conv2d_44_weights                      int8(1x3x3x192) (109)      
                                                                    W: conv2d_44_bias                         int32(192) (105)           
                                                                    O: conv2d_44_output                       int8(1x4x4x192) (106)      
------ ---------------------- ---- -------------- -------- -------- ----------------------------------------- -------------------------- 
49     conv2d_45              45   Conv2D         98336    6272     I: conv2d_44_output                       int8(1x4x4x192) (106)      
                                                                    S: conv2d_45_scratch0                                                
                                                                    W: conv2d_45_weights                      int8(32x1x1x192) (113)     
                                                                    W: conv2d_45_bias                         int32(32) (110)            
                                                                    O: conv2d_45_output                       int8(1x4x4x32) (111)       
------ ---------------------- ---- -------------- -------- -------- ----------------------------------------- -------------------------- 
50     eltwise_46             46   Eltwise/add    512      0        I: concat_42_output                       int8(1x4x4x32) (3)         
                                                                    I: conv2d_45_output                       int8(1x4x4x32) (3)         
                                                                    O: eltwise_46_output                      int8(1x4x4x32) (239)       
------ ---------------------- ---- -------------- -------- -------- ----------------------------------------- -------------------------- 
51     slice_48               48   Slice          0        0        I: eltwise_46_output                      int8(1x4x4x32) (239)       
                                                                    O: slice_48_output                        int8(1x4x4x28) (270)       
------ ---------------------- ---- -------------- -------- -------- ----------------------------------------- -------------------------- 
52     concat_49              49   Concat         0        0        I: serving_default_cache_b9_in0_output    int8(1x4x4x4) (259)        
                                                                    I: slice_48_output                        int8(1x4x4x4) (259)        
                                                                    O: concat_49_output                       int8(1x4x4x32) (4)         
------ ---------------------- ---- -------------- -------- -------- ----------------------------------------- -------------------------- 
53     conv2d_50              50   Conv2D         98496    6912     I: concat_49_output                       int8(1x4x4x32) (4)         
                                                                    S: conv2d_50_scratch0                                                
                                                                    W: conv2d_50_weights                      int8(192x1x1x32) (122)     
                                                                    W: conv2d_50_bias                         int32(192) (119)           
                                                                    O: conv2d_50_output                       int8(1x4x4x192) (120)      
------ ---------------------- ---- -------------- -------- -------- ----------------------------------------- -------------------------- 
54     conv2d_51_pad_before   51   Pad            0        0        I: conv2d_50_output                       int8(1x4x4x192) (120)      
                                                                    O: conv2d_51_pad_before_output            int8(1x6x6x192) (125)      
------ ---------------------- ---- -------------- -------- -------- ----------------------------------------- -------------------------- 
55     conv2d_51              51   Conv2D         27840    2496     I: conv2d_51_pad_before_output            int8(1x6x6x192) (125)      
                                                                    S: conv2d_51_scratch0                                                
                                                                    W: conv2d_51_weights                      int8(1x3x3x192) (127)      
                                                                    W: conv2d_51_bias                         int32(192) (123)           
                                                                    O: conv2d_51_output                       int8(1x4x4x192) (124)      
------ ---------------------- ---- -------------- -------- -------- ----------------------------------------- -------------------------- 
56     conv2d_52              52   Conv2D         98336    6272     I: conv2d_51_output                       int8(1x4x4x192) (124)      
                                                                    S: conv2d_52_scratch0                                                
                                                                    W: conv2d_52_weights                      int8(32x1x1x192) (131)     
                                                                    W: conv2d_52_bias                         int32(32) (128)            
                                                                    O: conv2d_52_output                       int8(1x4x4x32) (129)       
------ ---------------------- ---- -------------- -------- -------- ----------------------------------------- -------------------------- 
57     eltwise_53             53   Eltwise/add    512      0        I: concat_49_output                       int8(1x4x4x32) (4)         
                                                                    I: conv2d_52_output                       int8(1x4x4x32) (4)         
                                                                    O: eltwise_53_output                      int8(1x4x4x32) (240)       
------ ---------------------- ---- -------------- -------- -------- ----------------------------------------- -------------------------- 
58     conv2d_54              54   Conv2D         98496    6912     I: eltwise_53_output                      int8(1x4x4x32) (240)       
                                                                    S: conv2d_54_scratch0                                                
                                                                    W: conv2d_54_weights                      int8(192x1x1x32) (135)     
                                                                    W: conv2d_54_bias                         int32(192) (132)           
                                                                    O: conv2d_54_output                       int8(1x4x4x192) (133)      
------ ---------------------- ---- -------------- -------- -------- ----------------------------------------- -------------------------- 
59     conv2d_55_pad_before   55   Pad            0        0        I: conv2d_54_output                       int8(1x4x4x192) (133)      
                                                                    O: conv2d_55_pad_before_output            int8(1x6x6x192) (138)      
------ ---------------------- ---- -------------- -------- -------- ----------------------------------------- -------------------------- 
60     conv2d_55              55   Conv2D         27840    2496     I: conv2d_55_pad_before_output            int8(1x6x6x192) (138)      
                                                                    S: conv2d_55_scratch0                                                
                                                                    W: conv2d_55_weights                      int8(1x3x3x192) (140)      
                                                                    W: conv2d_55_bias                         int32(192) (136)           
                                                                    O: conv2d_55_output                       int8(1x4x4x192) (137)      
------ ---------------------- ---- -------------- -------- -------- ----------------------------------------- -------------------------- 
61     conv2d_56              56   Conv2D         147504   9408     I: conv2d_55_output                       int8(1x4x4x192) (137)      
                                                                    S: conv2d_56_scratch0                                                
                                                                    W: conv2d_56_weights                      int8(48x1x1x192) (144)     
                                                                    W: conv2d_56_bias                         int32(48) (141)            
                                                                    O: conv2d_56_output                       int8(1x4x4x48) (142)       
------ ---------------------- ---- -------------- -------- -------- ----------------------------------------- -------------------------- 
62     slice_58               58   Slice          0        0        I: conv2d_56_output                       int8(1x4x4x48) (142)       
                                                                    O: slice_58_output                        int8(1x4x4x42) (272)       
------ ---------------------- ---- -------------- -------- -------- ----------------------------------------- -------------------------- 
63     concat_59              59   Concat         0        0        I: serving_default_cache_b11_in0_output   int8(1x4x4x6) (250)        
                                                                    I: slice_58_output                        int8(1x4x4x6) (250)        
                                                                    O: concat_59_output                       int8(1x4x4x48) (5)         
------ ---------------------- ---- -------------- -------- -------- ----------------------------------------- -------------------------- 
64     conv2d_60              60   Conv2D         221472   14976    I: concat_59_output                       int8(1x4x4x48) (5)         
                                                                    S: conv2d_60_scratch0                                                
                                                                    W: conv2d_60_weights                      int8(288x1x1x48) (152)     
                                                                    W: conv2d_60_bias                         int32(288) (149)           
                                                                    O: conv2d_60_output                       int8(1x4x4x288) (150)      
------ ---------------------- ---- -------------- -------- -------- ----------------------------------------- -------------------------- 
65     conv2d_61_pad_before   61   Pad            0        0        I: conv2d_60_output                       int8(1x4x4x288) (150)      
                                                                    O: conv2d_61_pad_before_output            int8(1x6x6x288) (155)      
------ ---------------------- ---- -------------- -------- -------- ----------------------------------------- -------------------------- 
66     conv2d_61              61   Conv2D         41760    3744     I: conv2d_61_pad_before_output            int8(1x6x6x288) (155)      
                                                                    S: conv2d_61_scratch0                                                
                                                                    W: conv2d_61_weights                      int8(1x3x3x288) (157)      
                                                                    W: conv2d_61_bias                         int32(288) (153)           
                                                                    O: conv2d_61_output                       int8(1x4x4x288) (154)      
------ ---------------------- ---- -------------- -------- -------- ----------------------------------------- -------------------------- 
67     conv2d_62              62   Conv2D         221232   14016    I: conv2d_61_output                       int8(1x4x4x288) (154)      
                                                                    S: conv2d_62_scratch0                                                
                                                                    W: conv2d_62_weights                      int8(48x1x1x288) (161)     
                                                                    W: conv2d_62_bias                         int32(48) (158)            
                                                                    O: conv2d_62_output                       int8(1x4x4x48) (159)       
------ ---------------------- ---- -------------- -------- -------- ----------------------------------------- -------------------------- 
68     eltwise_63             63   Eltwise/add    768      0        I: concat_59_output                       int8(1x4x4x48) (5)         
                                                                    I: conv2d_62_output                       int8(1x4x4x48) (5)         
                                                                    O: eltwise_63_output                      int8(1x4x4x48) (241)       
------ ---------------------- ---- -------------- -------- -------- ----------------------------------------- -------------------------- 
69     slice_65               65   Slice          0        0        I: eltwise_63_output                      int8(1x4x4x48) (241)       
                                                                    O: slice_65_output                        int8(1x4x4x42) (274)       
------ ---------------------- ---- -------------- -------- -------- ----------------------------------------- -------------------------- 
70     concat_66              66   Concat         0        0        I: serving_default_cache_b12_in0_output   int8(1x4x4x6) (251)        
                                                                    I: slice_65_output                        int8(1x4x4x6) (251)        
                                                                    O: concat_66_output                       int8(1x4x4x48) (6)         
------ ---------------------- ---- -------------- -------- -------- ----------------------------------------- -------------------------- 
71     conv2d_67              67   Conv2D         221472   14976    I: concat_66_output                       int8(1x4x4x48) (6)         
                                                                    S: conv2d_67_scratch0                                                
                                                                    W: conv2d_67_weights                      int8(288x1x1x48) (165)     
                                                                    W: conv2d_67_bias                         int32(288) (162)           
                                                                    O: conv2d_67_output                       int8(1x4x4x288) (163)      
------ ---------------------- ---- -------------- -------- -------- ----------------------------------------- -------------------------- 
72     conv2d_68_pad_before   68   Pad            0        0        I: conv2d_67_output                       int8(1x4x4x288) (163)      
                                                                    O: conv2d_68_pad_before_output            int8(1x6x6x288) (168)      
------ ---------------------- ---- -------------- -------- -------- ----------------------------------------- -------------------------- 
73     conv2d_68              68   Conv2D         41760    3744     I: conv2d_68_pad_before_output            int8(1x6x6x288) (168)      
                                                                    S: conv2d_68_scratch0                                                
                                                                    W: conv2d_68_weights                      int8(1x3x3x288) (170)      
                                                                    W: conv2d_68_bias                         int32(288) (166)           
                                                                    O: conv2d_68_output                       int8(1x4x4x288) (167)      
------ ---------------------- ---- -------------- -------- -------- ----------------------------------------- -------------------------- 
74     conv2d_69              69   Conv2D         221232   14016    I: conv2d_68_output                       int8(1x4x4x288) (167)      
                                                                    S: conv2d_69_scratch0                                                
                                                                    W: conv2d_69_weights                      int8(48x1x1x288) (174)     
                                                                    W: conv2d_69_bias                         int32(48) (171)            
                                                                    O: conv2d_69_output                       int8(1x4x4x48) (172)       
------ ---------------------- ---- -------------- -------- -------- ----------------------------------------- -------------------------- 
75     eltwise_70             70   Eltwise/add    768      0        I: concat_66_output                       int8(1x4x4x48) (6)         
                                                                    I: conv2d_69_output                       int8(1x4x4x48) (6)         
                                                                    O: eltwise_70_output                      int8(1x4x4x48) (242)       
------ ---------------------- ---- -------------- -------- -------- ----------------------------------------- -------------------------- 
76     conv2d_71              71   Conv2D         221472   14976    I: eltwise_70_output                      int8(1x4x4x48) (242)       
                                                                    S: conv2d_71_scratch0                                                
                                                                    W: conv2d_71_weights                      int8(288x1x1x48) (178)     
                                                                    W: conv2d_71_bias                         int32(288) (175)           
                                                                    O: conv2d_71_output                       int8(1x4x4x288) (176)      
------ ---------------------- ---- -------------- -------- -------- ----------------------------------------- -------------------------- 
77     conv2d_72_pad_before   72   Pad            0        0        I: conv2d_71_output                       int8(1x4x4x288) (176)      
                                                                    O: conv2d_72_pad_before_output            int8(1x6x6x288) (181)      
------ ---------------------- ---- -------------- -------- -------- ----------------------------------------- -------------------------- 
78     conv2d_72              72   Conv2D         10656    3744     I: conv2d_72_pad_before_output            int8(1x6x6x288) (181)      
                                                                    S: conv2d_72_scratch0                                                
                                                                    W: conv2d_72_weights                      int8(1x3x3x288) (183)      
                                                                    W: conv2d_72_bias                         int32(288) (179)           
                                                                    O: conv2d_72_output                       int8(1x2x2x288) (180)      
------ ---------------------- ---- -------------- -------- -------- ----------------------------------------- -------------------------- 
79     conv2d_73              73   Conv2D         92240    23360    I: conv2d_72_output                       int8(1x2x2x288) (180)      
                                                                    S: conv2d_73_scratch0                                                
                                                                    W: conv2d_73_weights                      int8(80x1x1x288) (187)     
                                                                    W: conv2d_73_bias                         int32(80) (184)            
                                                                    O: conv2d_73_output                       int8(1x2x2x80) (185)       
------ ---------------------- ---- -------------- -------- -------- ----------------------------------------- -------------------------- 
80     slice_75               75   Slice          0        0        I: conv2d_73_output                       int8(1x2x2x80) (185)       
                                                                    O: slice_75_output                        int8(1x2x2x70) (277)       
------ ---------------------- ---- -------------- -------- -------- ----------------------------------------- -------------------------- 
81     concat_76              76   Concat         0        0        I: serving_default_cache_b14_in0_output   int8(1x2x2x10) (252)       
                                                                    I: slice_75_output                        int8(1x2x2x10) (252)       
                                                                    O: concat_76_output                       int8(1x2x2x80) (7)         
------ ---------------------- ---- -------------- -------- -------- ----------------------------------------- -------------------------- 
82     conv2d_77              77   Conv2D         154080   40320    I: concat_76_output                       int8(1x2x2x80) (7)         
                                                                    S: conv2d_77_scratch0                                                
                                                                    W: conv2d_77_weights                      int8(480x1x1x80) (191)     
                                                                    W: conv2d_77_bias                         int32(480) (188)           
                                                                    O: conv2d_77_output                       int8(1x2x2x480) (189)      
------ ---------------------- ---- -------------- -------- -------- ----------------------------------------- -------------------------- 
83     conv2d_78_pad_before   78   Pad            0        0        I: conv2d_77_output                       int8(1x2x2x480) (189)      
                                                                    O: conv2d_78_pad_before_output            int8(1x4x4x480) (194)      
------ ---------------------- ---- -------------- -------- -------- ----------------------------------------- -------------------------- 
84     conv2d_78              78   Conv2D         17760    6240     I: conv2d_78_pad_before_output            int8(1x4x4x480) (194)      
                                                                    S: conv2d_78_scratch0                                                
                                                                    W: conv2d_78_weights                      int8(1x3x3x480) (196)      
                                                                    W: conv2d_78_bias                         int32(480) (192)           
                                                                    O: conv2d_78_output                       int8(1x2x2x480) (193)      
------ ---------------------- ---- -------------- -------- -------- ----------------------------------------- -------------------------- 
85     conv2d_79              79   Conv2D         153680   38720    I: conv2d_78_output                       int8(1x2x2x480) (193)      
                                                                    S: conv2d_79_scratch0                                                
                                                                    W: conv2d_79_weights                      int8(80x1x1x480) (200)     
                                                                    W: conv2d_79_bias                         int32(80) (197)            
                                                                    O: conv2d_79_output                       int8(1x2x2x80) (198)       
------ ---------------------- ---- -------------- -------- -------- ----------------------------------------- -------------------------- 
86     eltwise_80             80   Eltwise/add    320      0        I: concat_76_output                       int8(1x2x2x80) (7)         
                                                                    I: conv2d_79_output                       int8(1x2x2x80) (7)         
                                                                    O: eltwise_80_output                      int8(1x2x2x80) (243)       
------ ---------------------- ---- -------------- -------- -------- ----------------------------------------- -------------------------- 
87     slice_82               82   Slice          0        0        I: eltwise_80_output                      int8(1x2x2x80) (243)       
                                                                    O: slice_82_output                        int8(1x2x2x70) (280)       
------ ---------------------- ---- -------------- -------- -------- ----------------------------------------- -------------------------- 
88     concat_83              83   Concat         0        0        I: serving_default_cache_b15_in0_output   int8(1x2x2x10) (253)       
                                                                    I: slice_82_output                        int8(1x2x2x10) (253)       
                                                                    O: concat_83_output                       int8(1x2x2x80) (8)         
------ ---------------------- ---- -------------- -------- -------- ----------------------------------------- -------------------------- 
89     conv2d_84              84   Conv2D         154080   40320    I: concat_83_output                       int8(1x2x2x80) (8)         
                                                                    S: conv2d_84_scratch0                                                
                                                                    W: conv2d_84_weights                      int8(480x1x1x80) (204)     
                                                                    W: conv2d_84_bias                         int32(480) (201)           
                                                                    O: conv2d_84_output                       int8(1x2x2x480) (202)      
------ ---------------------- ---- -------------- -------- -------- ----------------------------------------- -------------------------- 
90     conv2d_85_pad_before   85   Pad            0        0        I: conv2d_84_output                       int8(1x2x2x480) (202)      
                                                                    O: conv2d_85_pad_before_output            int8(1x4x4x480) (207)      
------ ---------------------- ---- -------------- -------- -------- ----------------------------------------- -------------------------- 
91     conv2d_85              85   Conv2D         17760    6240     I: conv2d_85_pad_before_output            int8(1x4x4x480) (207)      
                                                                    S: conv2d_85_scratch0                                                
                                                                    W: conv2d_85_weights                      int8(1x3x3x480) (209)      
                                                                    W: conv2d_85_bias                         int32(480) (205)           
                                                                    O: conv2d_85_output                       int8(1x2x2x480) (206)      
------ ---------------------- ---- -------------- -------- -------- ----------------------------------------- -------------------------- 
92     conv2d_86              86   Conv2D         153680   38720    I: conv2d_85_output                       int8(1x2x2x480) (206)      
                                                                    S: conv2d_86_scratch0                                                
                                                                    W: conv2d_86_weights                      int8(80x1x1x480) (213)     
                                                                    W: conv2d_86_bias                         int32(80) (210)            
                                                                    O: conv2d_86_output                       int8(1x2x2x80) (211)       
------ ---------------------- ---- -------------- -------- -------- ----------------------------------------- -------------------------- 
93     eltwise_87             87   Eltwise/add    320      0        I: concat_83_output                       int8(1x2x2x80) (8)         
                                                                    I: conv2d_86_output                       int8(1x2x2x80) (8)         
                                                                    O: eltwise_87_output                      int8(1x2x2x80) (244)       
------ ---------------------- ---- -------------- -------- -------- ----------------------------------------- -------------------------- 
94     conv2d_88              88   Conv2D         154080   40320    I: eltwise_87_output                      int8(1x2x2x80) (244)       
                                                                    S: conv2d_88_scratch0                                                
                                                                    W: conv2d_88_weights                      int8(480x1x1x80) (217)     
                                                                    W: conv2d_88_bias                         int32(480) (214)           
                                                                    O: conv2d_88_output                       int8(1x2x2x480) (215)      
------ ---------------------- ---- -------------- -------- -------- ----------------------------------------- -------------------------- 
95     conv2d_89_pad_before   89   Pad            0        0        I: conv2d_88_output                       int8(1x2x2x480) (215)      
                                                                    O: conv2d_89_pad_before_output            int8(1x4x4x480) (220)      
------ ---------------------- ---- -------------- -------- -------- ----------------------------------------- -------------------------- 
96     conv2d_89              89   Conv2D         17760    6240     I: conv2d_89_pad_before_output            int8(1x4x4x480) (220)      
                                                                    S: conv2d_89_scratch0                                                
                                                                    W: conv2d_89_weights                      int8(1x3x3x480) (222)      
                                                                    W: conv2d_89_bias                         int32(480) (218)           
                                                                    O: conv2d_89_output                       int8(1x2x2x480) (219)      
------ ---------------------- ---- -------------- -------- -------- ----------------------------------------- -------------------------- 
97     conv2d_90              90   Conv2D         307360   77440    I: conv2d_89_output                       int8(1x2x2x480) (219)      
                                                                    S: conv2d_90_scratch0                                                
                                                                    W: conv2d_90_weights                      int8(160x1x1x480) (226)    
                                                                    W: conv2d_90_bias                         int32(160) (223)           
                                                                    O: conv2d_90_output                       int8(1x2x2x160) (224)      
------ ---------------------- ---- -------------- -------- -------- ----------------------------------------- -------------------------- 
98     conv2d_91              91   Conv2D         820480   209920   I: conv2d_90_output                       int8(1x2x2x160) (224)      
                                                                    S: conv2d_91_scratch0                                                
                                                                    W: conv2d_91_weights                      int8(1280x1x1x160) (230)   
                                                                    W: conv2d_91_bias                         int32(1280) (227)          
                                                                    O: conv2d_91_output                       int8(1x2x2x1280) (228)     
------ ---------------------- ---- -------------- -------- -------- ----------------------------------------- -------------------------- 
99     pool_92                92   Pool           5120     0        I: conv2d_91_output                       int8(1x2x2x1280) (228)     
                                                                    O: pool_92_output                         int8(1x1x1x1280) (249)     
------ ---------------------- ---- -------------- -------- -------- ----------------------------------------- -------------------------- 
100    gemm_93                93   Dense          34587    34668    I: pool_92_output                         int8(1x1x1x1280) (249)     
                                                                    S: gemm_93_scratch0                                                  
                                                                    W: gemm_93_weights                        int8(27x1280) (248)        
                                                                    W: gemm_93_bias                           int32(27) (245)            
                                                                    O: gemm_93_output                         int8(1x27) (246)           
------ ---------------------- ---- -------------- -------- -------- ----------------------------------------- -------------------------- 
101    slice_81               81   Slice          0        0        I: eltwise_80_output                      int8(1x2x2x80) (243)       
                                                                    O: slice_81_output                        int8(1x2x2x10) (279)       
------ ---------------------- ---- -------------- -------- -------- ----------------------------------------- -------------------------- 
102    slice_74               74   Slice          0        0        I: conv2d_73_output                       int8(1x2x2x80) (185)       
                                                                    O: slice_74_output                        int8(1x2x2x10) (276)       
------ ---------------------- ---- -------------- -------- -------- ----------------------------------------- -------------------------- 
103    slice_64               64   Slice          0        0        I: eltwise_63_output                      int8(1x4x4x48) (241)       
                                                                    O: slice_64_output                        int8(1x4x4x6) (273)        
------ ---------------------- ---- -------------- -------- -------- ----------------------------------------- -------------------------- 
104    slice_57               57   Slice          0        0        I: conv2d_56_output                       int8(1x4x4x48) (142)       
                                                                    O: slice_57_output                        int8(1x4x4x6) (271)        
------ ---------------------- ---- -------------- -------- -------- ----------------------------------------- -------------------------- 
105    slice_47               47   Slice          0        0        I: eltwise_46_output                      int8(1x4x4x32) (239)       
                                                                    O: slice_47_output                        int8(1x4x4x4) (269)        
------ ---------------------- ---- -------------- -------- -------- ----------------------------------------- -------------------------- 
106    slice_40               40   Slice          0        0        I: eltwise_39_output                      int8(1x4x4x32) (238)       
                                                                    O: slice_40_output                        int8(1x4x4x4) (267)        
------ ---------------------- ---- -------------- -------- -------- ----------------------------------------- -------------------------- 
107    slice_33               33   Slice          0        0        I: conv2d_32_output                       int8(1x4x4x32) (81)        
                                                                    O: slice_33_output                        int8(1x4x4x4) (265)        
------ ---------------------- ---- -------------- -------- -------- ----------------------------------------- -------------------------- 
108    slice_23               23   Slice          0        0        I: eltwise_22_output                      int8(1x8x8x16) (236)       
                                                                    O: slice_23_output                        int8(1x8x8x2) (263)        
------ ---------------------- ---- -------------- -------- -------- ----------------------------------------- -------------------------- 
109    slice_16               16   Slice          0        0        I: conv2d_15_output                       int8(1x8x8x16) (33)        
                                                                    O: slice_16_output                        int8(1x8x8x2) (261)        
------ ---------------------- ---- -------------- -------- -------- ----------------------------------------- -------------------------- 
110    slice_6                6    Slice          0        0        I: conv2d_5_output                        int8(1x16x16x16) (146)     
                                                                    O: slice_6_output                         int8(1x16x16x2) (275)      
------ ---------------------- ---- -------------- -------- -------- ----------------------------------------- -------------------------- 



Number of operations per c-layer
------- ------ ----------------------------- ----------- ------------ 
c_id    m_id   name (type)                           #op         type 
------- ------ ----------------------------- ----------- ------------ 
0       0      conv2d_0 (Conv2D)                 147,472   smul_s8_s8 
1       1      conv2d_1_pad_before (Pad)               0   smul_s8_s8 
2       1      conv2d_1 (Conv2D)                 147,472   smul_s8_s8 
3       2      conv2d_2 (Conv2D)                 131,080   smul_s8_s8 
4       3      conv2d_3 (Conv2D)                 393,264   smul_s8_s8 
5       4      conv2d_4_pad_before (Pad)               0   smul_s8_s8 
6       4      conv2d_4 (Conv2D)                 110,640   smul_s8_s8 
7       5      conv2d_5 (Conv2D)                 196,624   smul_s8_s8 
8       7      slice_7 (Slice)                         0   smul_s8_s8 
9       8      concat_8 (Concat)                       0   smul_s8_s8 
10      9      conv2d_9 (Conv2D)                 393,312   smul_s8_s8 
11      10     conv2d_10_pad_before (Pad)              0   smul_s8_s8 
12      10     conv2d_10 (Conv2D)                221,280   smul_s8_s8 
13      11     conv2d_11 (Conv2D)                393,232   smul_s8_s8 
14      12     eltwise_12 (Eltwise/add)            4,096     op_s8_s8 
15      13     conv2d_13 (Conv2D)                393,312   smul_s8_s8 
16      14     conv2d_14_pad_before (Pad)              0   smul_s8_s8 
17      14     conv2d_14 (Conv2D)                 55,392   smul_s8_s8 
18      15     conv2d_15 (Conv2D)                 98,320   smul_s8_s8 
19      17     slice_17 (Slice)                        0   smul_s8_s8 
20      18     concat_18 (Concat)                      0   smul_s8_s8 
21      19     conv2d_19 (Conv2D)                 98,400   smul_s8_s8 
22      20     conv2d_20_pad_before (Pad)              0   smul_s8_s8 
23      20     conv2d_20 (Conv2D)                 55,392   smul_s8_s8 
24      21     conv2d_21 (Conv2D)                 98,320   smul_s8_s8 
25      22     eltwise_22 (Eltwise/add)            1,024     op_s8_s8 
26      24     slice_24 (Slice)                        0   smul_s8_s8 
27      25     concat_25 (Concat)                      0   smul_s8_s8 
28      26     conv2d_26 (Conv2D)                 98,400   smul_s8_s8 
29      27     conv2d_27_pad_before (Pad)              0   smul_s8_s8 
30      27     conv2d_27 (Conv2D)                 55,392   smul_s8_s8 
31      28     conv2d_28 (Conv2D)                 98,320   smul_s8_s8 
32      29     eltwise_29 (Eltwise/add)            1,024     op_s8_s8 
33      30     conv2d_30 (Conv2D)                 98,400   smul_s8_s8 
34      31     conv2d_31_pad_before (Pad)              0   smul_s8_s8 
35      31     conv2d_31 (Conv2D)                 13,920   smul_s8_s8 
36      32     conv2d_32 (Conv2D)                 49,184   smul_s8_s8 
37      34     slice_34 (Slice)                        0   smul_s8_s8 
38      35     concat_35 (Concat)                      0   smul_s8_s8 
39      36     conv2d_36 (Conv2D)                 98,496   smul_s8_s8 
40      37     conv2d_37_pad_before (Pad)              0   smul_s8_s8 
41      37     conv2d_37 (Conv2D)                 27,840   smul_s8_s8 
42      38     conv2d_38 (Conv2D)                 98,336   smul_s8_s8 
43      39     eltwise_39 (Eltwise/add)              512     op_s8_s8 
44      41     slice_41 (Slice)                        0   smul_s8_s8 
45      42     concat_42 (Concat)                      0   smul_s8_s8 
46      43     conv2d_43 (Conv2D)                 98,496   smul_s8_s8 
47      44     conv2d_44_pad_before (Pad)              0   smul_s8_s8 
48      44     conv2d_44 (Conv2D)                 27,840   smul_s8_s8 
49      45     conv2d_45 (Conv2D)                 98,336   smul_s8_s8 
50      46     eltwise_46 (Eltwise/add)              512     op_s8_s8 
51      48     slice_48 (Slice)                        0   smul_s8_s8 
52      49     concat_49 (Concat)                      0   smul_s8_s8 
53      50     conv2d_50 (Conv2D)                 98,496   smul_s8_s8 
54      51     conv2d_51_pad_before (Pad)              0   smul_s8_s8 
55      51     conv2d_51 (Conv2D)                 27,840   smul_s8_s8 
56      52     conv2d_52 (Conv2D)                 98,336   smul_s8_s8 
57      53     eltwise_53 (Eltwise/add)              512     op_s8_s8 
58      54     conv2d_54 (Conv2D)                 98,496   smul_s8_s8 
59      55     conv2d_55_pad_before (Pad)              0   smul_s8_s8 
60      55     conv2d_55 (Conv2D)                 27,840   smul_s8_s8 
61      56     conv2d_56 (Conv2D)                147,504   smul_s8_s8 
62      58     slice_58 (Slice)                        0   smul_s8_s8 
63      59     concat_59 (Concat)                      0   smul_s8_s8 
64      60     conv2d_60 (Conv2D)                221,472   smul_s8_s8 
65      61     conv2d_61_pad_before (Pad)              0   smul_s8_s8 
66      61     conv2d_61 (Conv2D)                 41,760   smul_s8_s8 
67      62     conv2d_62 (Conv2D)                221,232   smul_s8_s8 
68      63     eltwise_63 (Eltwise/add)              768     op_s8_s8 
69      65     slice_65 (Slice)                        0   smul_s8_s8 
70      66     concat_66 (Concat)                      0   smul_s8_s8 
71      67     conv2d_67 (Conv2D)                221,472   smul_s8_s8 
72      68     conv2d_68_pad_before (Pad)              0   smul_s8_s8 
73      68     conv2d_68 (Conv2D)                 41,760   smul_s8_s8 
74      69     conv2d_69 (Conv2D)                221,232   smul_s8_s8 
75      70     eltwise_70 (Eltwise/add)              768     op_s8_s8 
76      71     conv2d_71 (Conv2D)                221,472   smul_s8_s8 
77      72     conv2d_72_pad_before (Pad)              0   smul_s8_s8 
78      72     conv2d_72 (Conv2D)                 10,656   smul_s8_s8 
79      73     conv2d_73 (Conv2D)                 92,240   smul_s8_s8 
80      75     slice_75 (Slice)                        0   smul_s8_s8 
81      76     concat_76 (Concat)                      0   smul_s8_s8 
82      77     conv2d_77 (Conv2D)                154,080   smul_s8_s8 
83      78     conv2d_78_pad_before (Pad)              0   smul_s8_s8 
84      78     conv2d_78 (Conv2D)                 17,760   smul_s8_s8 
85      79     conv2d_79 (Conv2D)                153,680   smul_s8_s8 
86      80     eltwise_80 (Eltwise/add)              320     op_s8_s8 
87      82     slice_82 (Slice)                        0   smul_s8_s8 
88      83     concat_83 (Concat)                      0   smul_s8_s8 
89      84     conv2d_84 (Conv2D)                154,080   smul_s8_s8 
90      85     conv2d_85_pad_before (Pad)              0   smul_s8_s8 
91      85     conv2d_85 (Conv2D)                 17,760   smul_s8_s8 
92      86     conv2d_86 (Conv2D)                153,680   smul_s8_s8 
93      87     eltwise_87 (Eltwise/add)              320     op_s8_s8 
94      88     conv2d_88 (Conv2D)                154,080   smul_s8_s8 
95      89     conv2d_89_pad_before (Pad)              0   smul_s8_s8 
96      89     conv2d_89 (Conv2D)                 17,760   smul_s8_s8 
97      90     conv2d_90 (Conv2D)                307,360   smul_s8_s8 
98      91     conv2d_91 (Conv2D)                820,480   smul_s8_s8 
99      92     pool_92 (Pool_Avg)                  5,120   smul_s8_s8 
100     93     gemm_93 (Dense)                    34,587   smul_s8_s8 
101     81     slice_81 (Slice)                        0   smul_s8_s8 
102     74     slice_74 (Slice)                        0   smul_s8_s8 
103     64     slice_64 (Slice)                        0   smul_s8_s8 
104     57     slice_57 (Slice)                        0   smul_s8_s8 
105     47     slice_47 (Slice)                        0   smul_s8_s8 
106     40     slice_40 (Slice)                        0   smul_s8_s8 
107     33     slice_33 (Slice)                        0   smul_s8_s8 
108     23     slice_23 (Slice)                        0   smul_s8_s8 
109     16     slice_16 (Slice)                        0   smul_s8_s8 
110     6      slice_6 (Slice)                         0   smul_s8_s8 
------- ------ ----------------------------- ----------- ------------ 
total                                          7,588,563 

Number of operation types
---------------- ----------- ----------- 
operation type             #           % 
---------------- ----------- ----------- 
smul_s8_s8         7,578,707       99.9% 
op_s8_s8               9,856        0.1% 

Complexity report (model)
------ ------------------------------------------ ------------------------- ------------------------- ---------- 
m_id   name                                       c_macc                    c_rom                     c_id       
------ ------------------------------------------ ------------------------- ------------------------- ---------- 
0      serving_default_frame_in0                  |||                1.9%   |                  0.0%   [0]        
1      conv2d_1                                   |||                1.9%   |                  0.0%   [1, 2]     
2      conv2d_2                                   |||                1.7%   |                  0.0%   [3]        
3      conv2d_3                                   ||||||||           5.2%   |                  0.1%   [4]        
4      conv2d_4                                   |||                1.5%   |                  0.1%   [5, 6]     
5      conv2d_5                                   ||||               2.6%   |                  0.1%   [7]        
6      slice_6                                    |                  0.0%   |                  0.0%   [110]      
7      slice_7                                    |                  0.0%   |                  0.0%   [8]        
8      serving_default_cache_b2_in0               |                  0.0%   |                  0.0%   [9]        
9      conv2d_9                                   ||||||||           5.2%   |                  0.3%   [10]       
10     conv2d_10                                  |||||              2.9%   |                  0.2%   [11, 12]   
11     conv2d_11                                  ||||||||           5.2%   |                  0.2%   [13]       
12     eltwise_12                                 |                  0.1%   |                  0.0%   [14]       
13     conv2d_13                                  ||||||||           5.2%   |                  0.3%   [15]       
14     conv2d_14                                  ||                 0.7%   |                  0.2%   [16, 17]   
15     conv2d_15                                  ||                 1.3%   |                  0.2%   [18]       
16     slice_16                                   |                  0.0%   |                  0.0%   [109]      
17     slice_17                                   |                  0.0%   |                  0.0%   [19]       
18     serving_default_cache_b4_in0               |                  0.0%   |                  0.0%   [20]       
19     conv2d_19                                  ||                 1.3%   |                  0.3%   [21]       
20     conv2d_20                                  ||                 0.7%   |                  0.2%   [22, 23]   
21     conv2d_21                                  ||                 1.3%   |                  0.2%   [24]       
22     eltwise_22                                 |                  0.0%   |                  0.0%   [25]       
23     slice_23                                   |                  0.0%   |                  0.0%   [108]      
24     slice_24                                   |                  0.0%   |                  0.0%   [26]       
25     serving_default_cache_b5_in0               |                  0.0%   |                  0.0%   [27]       
26     conv2d_26                                  ||                 1.3%   |                  0.3%   [28]       
27     conv2d_27                                  ||                 0.7%   |                  0.2%   [29, 30]   
28     conv2d_28                                  ||                 1.3%   |                  0.2%   [31]       
29     eltwise_29                                 |                  0.0%   |                  0.0%   [32]       
30     conv2d_30                                  ||                 1.3%   |                  0.3%   [33]       
31     conv2d_31                                  |                  0.2%   |                  0.2%   [34, 35]   
32     conv2d_32                                  |                  0.6%   |                  0.4%   [36]       
33     slice_33                                   |                  0.0%   |                  0.0%   [107]      
34     slice_34                                   |                  0.0%   |                  0.0%   [37]       
35     serving_default_cache_b7_in0               |                  0.0%   |                  0.0%   [38]       
36     conv2d_36                                  ||                 1.3%   |                  0.9%   [39]       
37     conv2d_37                                  |                  0.4%   |                  0.3%   [40, 41]   
38     conv2d_38                                  ||                 1.3%   |                  0.8%   [42]       
39     eltwise_39                                 |                  0.0%   |                  0.0%   [43]       
40     slice_40                                   |                  0.0%   |                  0.0%   [106]      
41     slice_41                                   |                  0.0%   |                  0.0%   [44]       
42     serving_default_cache_b8_in0               |                  0.0%   |                  0.0%   [45]       
43     conv2d_43                                  ||                 1.3%   |                  0.9%   [46]       
44     conv2d_44                                  |                  0.4%   |                  0.3%   [47, 48]   
45     conv2d_45                                  ||                 1.3%   |                  0.8%   [49]       
46     eltwise_46                                 |                  0.0%   |                  0.0%   [50]       
47     slice_47                                   |                  0.0%   |                  0.0%   [105]      
48     slice_48                                   |                  0.0%   |                  0.0%   [51]       
49     serving_default_cache_b9_in0               |                  0.0%   |                  0.0%   [52]       
50     conv2d_50                                  ||                 1.3%   |                  0.9%   [53]       
51     conv2d_51                                  |                  0.4%   |                  0.3%   [54, 55]   
52     conv2d_52                                  ||                 1.3%   |                  0.8%   [56]       
53     eltwise_53                                 |                  0.0%   |                  0.0%   [57]       
54     conv2d_54                                  ||                 1.3%   |                  0.9%   [58]       
55     conv2d_55                                  |                  0.4%   |                  0.3%   [59, 60]   
56     conv2d_56                                  |||                1.9%   |                  1.3%   [61]       
57     slice_57                                   |                  0.0%   |                  0.0%   [104]      
58     slice_58                                   |                  0.0%   |                  0.0%   [62]       
59     serving_default_cache_b11_in0              |                  0.0%   |                  0.0%   [63]       
60     conv2d_60                                  |||||              2.9%   ||                 2.0%   [64]       
61     conv2d_61                                  |                  0.6%   |                  0.5%   [65, 66]   
62     conv2d_62                                  |||||              2.9%   ||                 1.9%   [67]       
63     eltwise_63                                 |                  0.0%   |                  0.0%   [68]       
64     slice_64                                   |                  0.0%   |                  0.0%   [103]      
65     slice_65                                   |                  0.0%   |                  0.0%   [69]       
66     serving_default_cache_b12_in0              |                  0.0%   |                  0.0%   [70]       
67     conv2d_67                                  |||||              2.9%   ||                 2.0%   [71]       
68     conv2d_68                                  |                  0.6%   |                  0.5%   [72, 73]   
69     conv2d_69                                  |||||              2.9%   ||                 1.9%   [74]       
70     eltwise_70                                 |                  0.0%   |                  0.0%   [75]       
71     conv2d_71                                  |||||              2.9%   ||                 2.0%   [76]       
72     conv2d_72                                  |                  0.1%   |                  0.5%   [77, 78]   
73     conv2d_73                                  ||                 1.2%   ||                 3.2%   [79]       
74     slice_74                                   |                  0.0%   |                  0.0%   [102]      
75     slice_75                                   |                  0.0%   |                  0.0%   [80]       
76     serving_default_cache_b14_in0              |                  0.0%   |                  0.0%   [81]       
77     conv2d_77                                  |||                2.0%   |||                5.4%   [82]       
78     conv2d_78                                  |                  0.2%   |                  0.8%   [83, 84]   
79     conv2d_79                                  |||                2.0%   |||                5.2%   [85]       
80     eltwise_80                                 |                  0.0%   |                  0.0%   [86]       
81     slice_81                                   |                  0.0%   |                  0.0%   [101]      
82     slice_82                                   |                  0.0%   |                  0.0%   [87]       
83     serving_default_cache_b15_in0              |                  0.0%   |                  0.0%   [88]       
84     conv2d_84                                  |||                2.0%   |||                5.4%   [89]       
85     conv2d_85                                  |                  0.2%   |                  0.8%   [90, 91]   
86     conv2d_86                                  |||                2.0%   |||                5.2%   [92]       
87     eltwise_87                                 |                  0.0%   |                  0.0%   [93]       
88     conv2d_88                                  |||                2.0%   |||                5.4%   [94]       
89     conv2d_89                                  |                  0.2%   |                  0.8%   [95, 96]   
90     conv2d_90                                  ||||||             4.1%   ||||||            10.5%   [97]       
91     conv2d_91                                  ||||||||||||||||  10.8%   ||||||||||||||||  28.3%   [98]       
92     pool_92                                    |                  0.1%   |                  0.0%   [99]       
93     c1_tsmmbv2_streaming_head_su..nse_MatMul   |                  0.5%   |||                4.7%   [100]      
------ ------------------------------------------ ------------------------- ------------------------- ---------- 
macc=7,588,563 weights=740,604 act=69,776 ram_io=0
 
 Requested memory size by section - "stm32" target
 ------------------------------ -------- --------- ------- -------- 
 module                             text    rodata    data      bss 
 ------------------------------ -------- --------- ------- -------- 
 student_c1j_ptq_int8.o           16,728    39,364   9,540      344 
 NetworkRuntime1200_CM7_GCC.a     23,260         0       0        0 
 lib (toolchain)*                    104         0       0        0 
 ------------------------------ -------- --------- ------- -------- 
 RT total**                       40,092    39,364   9,540      344 
 ------------------------------ -------- --------- ------- -------- 
 weights                               0   740,608       0        0 
 activations                           0         0       0   69,776 
 states                                0         0       0        0 
 io                                    0         0       0        0 
 ------------------------------ -------- --------- ------- -------- 
 TOTAL                            40,092   779,972   9,540   70,120 
 ------------------------------ -------- --------- ------- -------- 
 *  toolchain objects (libm/libgcc*)
 ** RT AI runtime objects (kernels+infrastructure)
  
  Summary - "stm32" target
  ---------------------------------------------------
               FLASH (ro)      %*   RAM (rw)       % 
  ---------------------------------------------------
  RT total         88,996   10.7%      9,884   12.4% 
  ---------------------------------------------------
  TOTAL           829,604             79,660         
  ---------------------------------------------------
  *  rt/total


Generated files (5)
-------------------------------------------------------------------------------------------------------------------------------- 
/leonardo_work/IscrB_WearUsFM/jzhang03/MLonMCU/models/student_C1J/deploy/stedgeai_generate_int8/student_c1j_ptq_int8_data.h      
/leonardo_work/IscrB_WearUsFM/jzhang03/MLonMCU/models/student_C1J/deploy/stedgeai_generate_int8/student_c1j_ptq_int8_data.c      
/leonardo_work/IscrB_WearUsFM/jzhang03/MLonMCU/models/student_C1J/deploy/stedgeai_generate_int8/student_c1j_ptq_int8.h           
/leonardo_work/IscrB_WearUsFM/jzhang03/MLonMCU/models/student_C1J/deploy/stedgeai_generate_int8/student_c1j_ptq_int8.c           
/leonardo_work/IscrB_WearUsFM/jzhang03/MLonMCU/models/student_C1J/deploy/stedgeai_generate_int8/student_c1j_ptq_int8_details.h   
